semi_supervised/Deep-SAD-PyTorch/log/DeepSAD/arrhythmia_test/model.tar (torch_old, 553818 bytes, 21 tensors)

hidden.0.linear.weight f4 [128, 274]
0.032791365 -0.033187818 -0.008235629 0.033198226 -0.048958354 0.0302788 -0.0071461666 0.03164115
0.004245496 -0.014239002 0.014462421 0.0086093685 0.027453136 -0.017341355 -0.0026434644 0.00047798877
0.013987103 0.0060837185 0.049263984 0.020522876 -0.016754579 -0.03142139 -0.011040093 -0.02806534
-0.0119732 -0.0024253842 0.03636301 0.027595649 -0.056375355 0.045149416 0.022266598 0.048862755
0.045149248 -0.04840544 -0.056714267 -0.03011881 0.054657247 -0.012790819 0.034444276 -0.033084907
0.052161373 -0.020020954 0.037479606 0.002084498 -0.02667273 0.03511587 -0.033765726 0.02344037
-0.01617042 4.475678e-05 -0.04960457 -0.026962632 0.031249851 -0.013391807 0.06261592 0.050051153
-0.0016426119 -0.033346433 0.034031235 0.027195778 -0.04054363 0.035770833 0.029450884 0.05246585
-0.026874328 -0.005796557 0.005243415 0.0057114647 -0.04393548 -0.035197914 0.038802736 -0.013633987
0.035922244 -0.0012662102 0.021129025 0.015001231 0.026659437 0.024788547 -0.047566958 0.032190993
-0.034831014 -0.04339339 0.00964331 -0.011080258 0.033407185 -0.031321913 -0.048139166 0.04738243
-0.0037102103 0.03129079 0.014482116 -0.039850034 0.01784123 0.02098977 -0.03586645 -0.025515985
0.020521028 0.011095178 -0.021293618 -0.012245237 0.061384663 -0.0058600088 0.03944872 0.032464556
-0.045700014 -0.051379576 0.061413884 0.006141697 0.03905195 0.016263442 0.02252649 0.047039345
0.054728474 -0.035679158 0.013653528 0.037271466 0.043300886 0.04276167 -0.037267406 -0.042264268
-0.03939034 0.007641077 0.057101708 -0.040676154 0.032464534 -0.028365273 -0.04838103 -0.008760042
0.027735982 0.062211722 -0.03393705 0.01781189 0.04772879 0.045212895 0.030348452 0.046913397
0.030866997 0.019809278 -0.033743285 -0.042602435 -0.021301076 -0.0014700566 -0.04002992 0.028531348
0.02351485 -0.016246004 0.017378436 0.021583265 0.029642029 0.042398486 -0.015081892 0.050509397
-0.004392361 0.0012906751 -0.062264707 -0.03523847 -0.03662507 -0.027961366 0.04971484 -0.014399143
-0.04252367 0.023085518 0.020143943 0.03940808 -0.03479665 0.012145915 -0.027342865 -0.01299395
-0.053111356 -0.027866105 -0.021783758 0.0206118 0.006112212 0.008172745 0.06529416 0.05572895
0.03657524 0.0059230025 -0.043542936 0.039518453 -0.020635063 -0.010522827 -0.054988507 -0.01679204
-0.039248053 0.0627116 -0.05341012 -0.049455516 0.004080535 -0.025783047 0.025916312 -0.019025166
-0.023325315 0.011214089 0.043331094 -0.04371331 0.027609447 0.04364581 0.053448614 -0.03465092
0.012918484 -0.03964991 0.052874032 -0.020299047 0.034393407 -0.001415897 -0.007590524 -0.00019378356
0.005749495 0.027185056 0.004791333 0.012753049 -0.0568168 0.038284395 0.056218117 0.044074997
0.042406388 -0.03977907 -0.01762603 0.04742927 -0.0464414 0.05916381 -0.047824364 -0.036557376
0.0318509 -0.04873752 -0.015114147 0.0470718 0.05106957 0.0527311 -0.011644703 -0.044357076
0.054926306 -0.012144725 -0.022985661 0.008989094 -0.038011193 0.04269046 0.042129025 -0.052266207
-0.054255318 -0.005670361 0.022866271 -0.0038114537 -0.028119698 -0.0048379446 -0.056426387 -0.036853064
-0.039097637 0.052832216 0.05206933 -0.024529967 0.0024356332 0.023529895 0.008026487 -0.03383687
00000000: 3d50 063d f3ef 07bd bbee 06bc ddfa 073d
00000010: 8e88 48bd 3f0b f83c 642a eabb 279a 013d
00000020: cd1d 8b3b b44a 69bc caf3 6c3c 4f0e 0d3c
00000030: 66e5 e03c 750f 8ebc f93d 2dbb 919a fa39
00000040: 292a 653c ee59 c73b 08c9 493d 971f a83c
00000050: e640 89bc b7b3 00bd 82e1 34bc 49e9 e5bc
00000060: 3e2b 44bc 32f3 1ebb 61f1 143d 4510 e23c
00000070: d8e9 66bd 98ee 383d 7168 b63c 5024 483d
00000080: 6bee 383d c844 46bd 384d 68bd b9bb f6bc
00000090: 47e0 5f3d 9590 51bc 7115 0d3d 0a84 07bd
000000a0: 2aa7 553d fc02 a4bc 3784 193d 139c 083b
000000b0: c580 dabc a9d5 0f3d ee4d 0abd 0506 c03c
000000c0: d477 84bc 3ab9 3b38 292e 4bbd bde0 dcbc
000000d0: b0ff ff3c 4f69 5bbc c73c 803d 7002 4d3d
000000e0: e94c d7ba 4596 08bd 5664 0b3d aec9 de3c
000000f0: 1411 26bd 7084 123d fb42 f13c 6ee6 563d
00000100: 8d27 dcbc 0bf1 bdbb f4d0 ab3b 3d27 bb3b
00000110: b1f5 33bd b02b 10bd 9eef 1e3d 1661 5fbc
00000120: 3423 133d f7f6 a5ba c716 ad3c b9c7 753c
00000130: e464 da3c 5a11 cb3c 92d5 42bd b4da 033d
00000140: f7aa 0ebd 44bd 31bd f9fe 1d3c f889 35bc
00000150: f9d5 083d 684b 00bd 932d 45bd 1414 423d
00000160: 0027 73bb c52a 003d 6646 6d3c ca39 23bd
00000170: c527 923c bdf2 ab3c b3e8 12bd e606 d1bc
00000180: b71b a83c 8dc8 353c f46f aebc 3fa0 48bc
00000190: 7c6e 7b3d 5105 c0bb fb94 213d 8ef9 043d
000001a0: f02f 3bbd 6473 52bd 208d 7b3d 4a40 c93b
000001b0: f0f4 1f3d e93a 853c 7989 b83c 54ac 403d
000001c0: f72a 603d 4f24 12bd 0cb3 5f3c f7a9 183d
000001d0: 455c 313d dc26 2f3d b5a5 18bd 4c1d 2dbd
000001e0: c457 21bd 0062 fa3b 7be3 693d 0a9c 26bd
000001f0: 88f9 043d 4a5e e8bc 302b 46bd 4786 0fbc
00000200: 9236 e33c b8d1 7e3d 9301 0bbd 3eea 913c
00000210: 447f 433d 2831 393d 519d f83c 4328 403d
00000220: c9dc fc3c 1147 a23c 6636 0abd e47f 2ebd
00000230: 987f aebc eaae c0ba 6af6 23bd 93ba e93c
00000240: 37a2 c03c 5716 85bc 395d 8e3c 63cf b03c
00000250: d7d3 f23c 09aa 2d3d 0a1a 77bc f1e2 4e3d
00000260: cbed 8fbb df2b a93a 4709 7fbd 3756 10bd
00000270: 2b04 16bd 3c0f e5bc caa1 4b3d 62ea 6bbc
00000280: 4d2d 2ebd d71d bd3c e904 a53c 5e6a 213d
00000290: ef86 0ebd a9ff 463c 25fe dfbc 94e4 54bc
000002a0: 4b8b 59bd 7547 e4bc da73 b2bc 14da a83c
000002b0: f348 c83b fae6 053c f2b8 853d 0a44 643d
000002c0: ebcf 153d bf15 c23b 145a 32bd 1ade 213d
000002d0: dd0a a9bc ef67 2cbc a13b 61bd 768f 89bc
000002e0: 91c2 20bd f06e 803d 92c4 5abd de91 4abd
000002f0: 02b6 853b f836 d3bc 724e d43c aada 9bbc
00000300: bb14 bfbc 4cbb 373c f27b 313d ba0c 33bd
00000310: 352d e23c f3c5 323d efec 5a3d 20ee 0dbd
00000320: 0da8 533c f267 22bd 7192 583d 304a a6bc
00000330: 1ae0 0c3d 9f95 b9ba eeb9 f8bb 6132 4bb9
00000340: 4266 bc3b 32b3 de3c 9d00 9d3b 2af2 503c
00000350: bcb8 68bd 19d0 1c3d f844 663d fc87 343d
00000360: 52b2 2d3d 61ef 22bd 7764 90bc 3245 423d
00000370: 5639 3ebd c055 723d 7be3 43bd 30bd 15bd
00000380: 1776 023d fea0 47bd 54a1 77bc 5cce 403d
00000390: 532e 513d 91fc 573d 6dc9 3ebc c4af 35bd
000003a0: 68fa 603d abfa 46bc 6d4c bcbc fe46 133c
000003b0: a0b1 1bbd 31dc 2e3d 7c8f 2c3d 1715 56bd
000003c0: d33a 5ebd 70ce b9bb 0c52 bb3c 95c9 79bb
000003d0: 485b e6bc 9f87 9ebb 5b1f 67bd 3df3 16bd
000003e0: d824 20bd 9866 583d a646 553d 12f3 c8bc
000003f0: 259f 1f3b c4c1 c03c 8781 033c 8898 0abd

hidden.0.bn.running_mean f4 [128]
0.10013299 -0.39432132 0.099783145 -0.29057992 0.08173034 0.3005851 -0.17018984 0.084906206
0.019259136 -0.1702717 -0.5474969 -0.018341651 -0.26782745 -0.19829309 0.10219843 -0.24712835
0.3049911 0.3795299 -0.185603 0.21140596 0.34320748 -0.21898249 0.06170457 -0.33181453
0.35971442 0.47219896 -0.3173648 -0.25044245 -0.40315664 -0.26653332 -0.054233942 -0.04020328
-0.073662326 0.15550473 0.22198293 0.23497827 0.26404142 0.048696857 -0.13013484 -0.06549267
-0.15814424 0.059169047 0.14513658 0.4634239 -0.122362725 0.41568255 0.056282073 -0.031554163
0.13968864 0.1477512 0.1268866 0.2103876 -0.18589768 -0.23167665 0.41566432 0.40969908
-0.46470487 0.25742912 0.18077989 -0.3309839 0.37098888 0.19010931 0.26220793 -0.098222755
0.23667723 0.08595908 0.12772343 -0.012227958 -0.17195562 -0.772132 0.10041806 -0.020979717
-0.4217735 -0.31610775 -0.31958854 -0.031426597 -0.18433265 -0.15384537 -0.0031181127 -0.10973488
-0.22349039 0.14701767 0.24811384 -0.14466003 0.04036964 0.22664064 0.2410297 0.0444774
0.06809933 -0.40886834 0.3768721 -0.41168335 -0.115935065 0.24366504 -0.08302003 0.37674963
0.28037947 -0.5674638 -0.10459946 0.040664427 -0.04791039 0.018265475 0.41448945 -0.21100901
0.066022106 -0.056588117 -0.26999688 0.15337448 0.13074918 0.051149186 0.25854734 0.021311447
0.037751693 0.23274234 0.07725272 0.25954694 0.08448943 -0.12613375 0.07307208 0.13491298
0.48462483 -0.30318093 -0.27356672 0.11250461 -0.21803212 0.2349453 -0.21891513 -0.33496904
00000000: 8612 cd3d 7ce4 c9be 1b5b cc3d e4c6 94be
00000010: 3d62 a73d 4ae6 993e 3f46 2ebe 4ee3 ad3d
00000020: 56c5 9d3c b45b 2ebe c228 0cbf 3b41 96bc
00000030: ae20 89be 580d 4bbe 694d d13d 370f 7dbe
00000040: cb27 9c3e be51 c23e b60e 3ebe ce7a 583e
00000050: e4b8 af3e f23c 60be eebd 7c3d 98e3 a9be
00000060: 7d2c b83e 10c4 f13e a47d a2be fe39 80be
00000070: 8c6a cebe 0e77 88be 6924 5ebd 32ac 24bd
00000080: 46dc 96bd a23c 1f3e 7e4f 633e 259e 703e
00000090: 7030 873e 5b76 473d 1142 05be 0521 86bd
000000a0: 90f0 21be 3e5b 723d af9e 143e e645 ed3e
000000b0: 4f99 fabd 58d4 d43e 0888 663d f03e 01bd
000000c0: 8a0a 0f3e 174c 173e 90ee 013e d96f 573e
000000d0: f65b 3ebe a53c 6dbe f4d1 d43e 14c4 d13e
000000e0: cced edbe c0cd 833e 5d1e 393e b976 a9be
000000f0: 41f2 bd3e 04ac 423e 1e40 863e 0329 c9bd
00000100: 845b 723e 500b b03d eec9 023e c657 48bc
00000110: 2215 30be 71aa 45bf fca7 cd3d a8dd abbc
00000120: b2f2 d7be e0d8 a1be 1ca1 a3be 2db9 00bd
00000130: b3c1 3cbe a489 1dbe 4059 4cbb aebc e0bd
00000140: aada 64be cd8b 163e 8e11 7e3e c221 14be
00000150: a35a 253d 7c14 683e 7dd0 763e ef2d 363d
00000160: a977 8b3d 3157 d1be 61f5 c03e 29c8 d2be
00000170: 5d6f edbd 5483 793e 6806 aabd 54e5 c03e
00000180: e68d 8f3e 4f45 11bf 3e38 d6bd be8f 263d
00000190: af3d 44bd 7aa1 953c f637 d43e bf12 58be
000001a0: 9936 873d f1c8 67bd 083d 8abe 330e 1d3e
000001b0: 1de3 053e cf81 513d 5160 843e 5895 ae3c
000001c0: 85a1 1a3d 0254 6e3e ad36 9e3d 56e3 843e
000001d0: cb08 ad3d 3529 01be d1a6 953d a126 0a3e
000001e0: bf20 f83e 883a 9bbe f010 8cbe d168 e63d
000001f0: d043 5fbe 8095 703e 4a2b 60be 1081 abbe

hidden.0.bn.running_var f4 [128]
0.0071465624 0.0058374554 0.004928434 0.0048080254 0.006606968 0.0035273787 0.0040971045 0.004385285
0.0045792987 0.0055530677 0.007643379 0.007530284 0.0068382863 0.009558667 0.0050553507 0.0057660155
0.0062530646 0.0044477656 0.0065021655 0.0050432077 0.005357996 0.0062426394 0.0041087815 0.0055088364
0.0051759663 0.0062431013 0.0059003346 0.0070933565 0.004726498 0.005958418 0.0044907145 0.0040752506
0.0069745732 0.0054088566 0.0031572173 0.004808957 0.004283276 0.0057244226 0.0037152183 0.0071131736
0.0070345527 0.003247974 0.0070288894 0.009102268 0.0038829993 0.003935726 0.0041380827 0.007977307
0.006590035 0.005029094 0.005787457 0.007244194 0.004228348 0.0058197053 0.0063764583 0.0053539868
0.0040075066 0.0046719094 0.0047307187 0.0064549777 0.0035459492 0.0070904754 0.0036380112 0.0040486054
0.006130965 0.007562679 0.0060766814 0.0043976335 0.004546648 0.00460522 0.006512245 0.005083813
0.0064019123 0.0061850008 0.0043977 0.0044223717 0.004164432 0.0045281276 0.0098109385 0.0065786117
0.004663459 0.0051071504 0.0068381135 0.005394386 0.0075490954 0.0066225696 0.005766596 0.0039383015
0.0052174763 0.00581977 0.0044878307 0.004807038 0.0062856684 0.006556542 0.00611823 0.009229069
0.0051868507 0.008381777 0.00857383 0.003847848 0.005366834 0.005860066 0.005953782 0.0043364777
0.007623337 0.0065492457 0.007991912 0.0048295334 0.004669821 0.0061013857 0.0055176914 0.0046609943
0.006216764 0.0044807014 0.0036306703 0.0042572725 0.0069944444 0.005885484 0.0038883085 0.0051777535
0.005762404 0.004784373 0.004175483 0.004522534 0.004990374 0.0065888898 0.005206485 0.005900314
00000000: b62d ea3b 2048 bf3b b37e a13b a48c 9d3b
00000010: 447f d83b 982b 673b 0141 863b 70b2 8f3b
00000020: f10d 963b 82f6 b53b 4f75 fa3b 9ac0 f63b
00000030: b413 e03b f59b 1c3c 5ba7 a53b d8f0 bc3b
00000040: 82e6 cc3b 90be 913b 1e10 d53b 7e41 a53b
00000050: 2192 af3b 0e8f cc3b f5a2 863b 7883 b43b
00000060: 279b a93b ee92 cc3b 9857 c13b 636f e83b
00000070: bde0 9a3b d53e c33b d826 933b ae89 853b
00000080: f68a e43b c73c b13b 51e9 4e3b 7594 9d3b
00000090: b95a 8c3b f093 bb3b 057b 733b a015 e93b
000000a0: 1b82 e63b f6db 543b 9952 e63b ae21 153c
000000b0: eb79 7e3b 43f7 803b c198 873b 40b3 023c
000000c0: 38f1 d73b 19cb a43b b5a4 bd3b b460 ed3b
000000d0: f48d 8a3b 3ab3 be3b 9cf1 d03b 7f70 af3b
000000e0: 6751 833b d116 993b 2504 9b3b 4784 d33b
000000f0: 2863 683b 3857 e83b b36b 6e3b 2aaa 843b
00000100: 43e6 c83b 59d0 f73b e61e c73b 061a 903b
00000110: 0cfc 943b 63e7 963b ac64 d53b 1d96 a63b
00000120: 22c7 d13b 8cab ca3b 951a 903b 8be9 903b
00000130: ca75 883b b060 943b 0fbe 203c 6591 d73b
00000140: eecf 983b e259 a73b 4112 e03b 64c3 b03b
00000150: 675e f73b 2402 d93b b7f5 bc3b de0c 813b
00000160: 5df7 aa3b c5b3 be3b a70e 933b 5c84 9d3b
00000170: 02f8 cd3b 43d8 d63b 6f7b c83b 8535 173c
00000180: 75f6 a93b b953 093c 4079 0c3c 2d2c 7c3b
00000190: 44dc af3b cc05 c03b f117 c33b 0319 8e3b
000001a0: 30cd f93b 0e9b d63b 82f0 023c 1041 9e3b
000001b0: 4c05 993b 22ee c73b c0cd b43b 41bb 983b
000001c0: ffb5 cb3b d9d2 923b 8af0 6d3b 9780 8b3b
000001d0: a731 e53b 05db c03b fed2 7e3b 25aa a93b
000001e0: 8cd2 bc3b 3bc6 9c3b 7dd2 883b c431 943b
000001f0: 4b86 a33b 9de7 d73b 299b aa3b 6c57 c13b

hidden.1.linear.weight f4 [64, 128]
-0.018472077 0.028224563 0.008047981 -0.030717619 -0.06946645 -0.031162689 -0.048775546 -0.0056738732
-0.08062336 -0.037047863 0.07414072 -0.053939953 -0.06720038 -0.0016778853 -0.05435552 0.010851424
0.07316881 -0.06706006 -0.062201705 0.04650655 -0.047337726 0.06580784 -0.07653597 -0.0030091542
0.088364124 0.04861339 -0.04486926 0.054430507 -0.084730506 0.07932359 0.023159852 0.06160984
-0.056815915 -0.009741276 0.012949898 0.002762131 -0.08579563 0.033353508 -0.014969012 -0.022343758
0.071055464 0.043792427 0.047344476 0.034932338 -0.025032448 -0.0600699 -0.03610216 -0.0076512042
0.07692058 -0.074208215 -0.007936281 -0.025566822 0.024092719 -0.021334313 -0.057540234 0.06345729
-0.07274244 0.045125145 0.06319748 -0.039153103 0.04969906 0.011627481 0.08422295 -0.07263059
-0.047410123 -0.02788567 0.05455028 0.015662128 0.056855887 0.07855837 0.075495444 -0.001542183
-0.065076016 0.013295359 0.070527054 0.037717476 -0.065215364 -0.06736614 0.058079664 0.027658489
-0.012755173 0.009543705 -0.07998198 0.054117408 0.011959673 0.07531479 -0.060579658 -0.08747988
0.030824114 -0.0044988166 -0.0015860313 0.079462714 -0.050655767 -0.02551282 -0.012479101 -0.03268516
0.060688715 -0.013227013 0.07418702 0.04258396 0.031983394 -0.064067446 0.07755327 0.048554055
0.056959853 -0.034823626 -0.031687748 -0.006869411 -0.059146702 0.05977798 -0.027122833 0.0015139778
0.06063362 0.044211455 0.05695708 0.07452199 0.07644769 0.062862776 0.037252326 -0.065119855
0.041000668 -0.08493933 -0.03513176 -0.0598682 0.039026625 0.08150319 -0.04594703 -0.010853151
-0.045626786 -0.03758531 0.03767587 -0.09305785 -0.008680272 0.08013614 0.07750602 0.07101621
-0.0717345 -0.04825779 -0.0046730195 0.008614475 -0.05557108 0.04708279 0.0071739564 0.06605098
0.02613024 -0.0034982353 -0.025588535 0.046175245 0.07707123 -0.063202746 0.040438704 0.08307845
0.06655913 -0.056072738 0.002482608 -0.071056955 0.04696072 0.0079137515 0.05157429 -0.020657694
0.011446131 -0.0018706468 -0.038676675 -0.06275574 0.0065204385 0.083277956 0.075636216 -0.0033459293
-0.07005259 -0.08712209 0.07943351 -0.036203712 0.035481542 -0.006353362 -0.04054368 0.055482633
0.013456429 0.047570303 0.023517944 0.03636635 0.025966536 -0.013267934 -0.02798929 -0.044138484
0.06715468 -0.0070209154 0.02225989 0.08648939 -0.0011314173 -0.03855335 0.074031085 -0.046546638
-0.03467096 -0.030023653 -0.05430279 0.007342499 0.006630186 -0.014087857 0.047054462 0.0638109
-0.04337838 0.0069910334 0.054426815 -0.04963171 0.044112504 0.052773654 -0.02510443 0.07389016
0.06574196 -0.057633325 -0.018852979 0.018172003 0.034258787 0.060196742 0.00039555103 -0.0047047758
0.020356087 0.0377876 -0.0068828105 -0.020780506 -0.039988272 -0.009286629 0.0086685615 -0.06654947
-0.017919455 0.008264789 -0.039476663 -0.005581466 -0.033086106 0.050899122 0.07652019 0.03737809
-0.016190294 0.05006017 0.0699514 -0.05391848 0.009497907 -0.02568115 -0.07633294 -0.052043688
-0.049808286 -0.074825846 -0.0010270093 -0.045311205 0.057418104 0.05727052 0.030259943 -0.07805944
-0.093472876 -0.073321365 0.059315894 -0.087458245 -0.043730665 -0.0063340957 -0.04767702 0.020418216
00000000: c152 97bc 3337 e73c aedb 033c 84a3 fbbc
00000010: 6d44 8ebd e548 ffbc dec8 47bd e6eb b9bb
00000020: dc1d a5bd 80bf 17bd 17d7 973d 24f0 5cbd
00000030: 5aa0 89bd 7dec dbba e5a3 5ebd 2cca 313c
00000040: 87d9 953d c956 89bd 37c7 7ebd a77d 3e3d
00000050: 34e5 41bd 43c6 863d e4be 9cbd 3b35 45bb
00000060: 40f8 b43d d61e 473d d4c8 37bd 86f2 5e3d
00000070: 3087 adbd 6874 a23d bbb9 bd3c 995a 7c3d
00000080: ceb7 68bd df99 1fbc cf2b 543c de04 353b
00000090: 9fb5 afbd b09d 083d 9640 75bc 420a b7bc
000000a0: 8785 913d b05f 333d 48ec 413d 3615 0f3d
000000b0: d910 cdbc db0b 76bd dcdf 13bd f4b6 fabb
000000c0: 8988 9d3d 7afa 97bd 2d07 02bc 8371 d1bc
000000d0: 185e c53c 4cc5 aebc 4faf 6bbd e5f5 813d
000000e0: fdf9 94bd 25d5 383d ae6d 813d 015f 20bd
000000f0: 3e91 4b3d 3181 3e3c 157d ac3d 59bf 94bd
00000100: 1e31 42bd 7d70 e4bc 1d70 5f3d dd4d 803c
00000110: b8e1 683d 36e3 a03d 5b9d 9a3d 1323 caba
00000120: 9346 85bd c7d4 593c 7d70 903d a47d 1a3d
00000130: a28f 85bd 42f7 89bd f1e4 6d3d 0e94 e23c
00000140: 13fb 50bc 335d 1c3c 98cd a3bd 37aa 5d3d
00000150: 81f2 433c a43e 9a3d 6022 78bd a728 b3bd
00000160: da82 fc3c cf6a 93bb 61e2 cfba 59bd a23d
00000170: 6c7c 4fbd 4300 d1bc 2575 4cbc e0e0 05bd
00000180: bb94 783d 1db6 58bc 5def 973d 856c 2e3d
00000190: 0501 033d cb35 83bd 40d4 9e3d 9ee0 463d
000001a0: bc4e 693d 38a3 0ebd 03cb 01bd cc18 e1bb
000001b0: d043 72bd c1d9 743d b430 debc aa70 c63a
000001c0: f55a 783d 1217 353d d44b 693d fc9e 983d
000001d0: 9b90 9c3d 33be 803d e595 183d 8f5d 85bd
000001e0: 51f0 273d acf4 adbd 52e6 0fbd 5c38 75bd
000001f0: 62da 1f3d 25eb a63d f432 3cbd 6ad1 31bc
00000200: 27e3 3abd 0ef3 19bd 0352 1a3d 1d95 bebd
00000210: b337 0ebc 6b1e a43d 7abb 9e3d f270 913d
00000220: 8ae9 92bd f6a9 45bd 2120 99bb ba23 0d3c
00000230: 809e 63bd e2d9 403d 8213 eb3b bc45 873d
00000240: 160f d63c a642 65bb 0c9f d1bc 4122 3d3d
00000250: 85d7 9d3d 7170 81bd 0ea3 253d 0925 aa3d
00000260: 2750 883d 87ac 65bd 40b3 223b 4f86 91bd
00000270: e259 403d aea8 013c 903f 533d 533a a9bc
00000280: 8e88 3b3c 7e30 f5ba 6f6b 1ebd 1586 80bd
00000290: 67a9 d53b a28d aa3d 29e7 9a3d 6147 5bbb
000002a0: bb77 8fbd 116d b2bd 09ae a23d 584a 14bd
000002b0: 1855 113d dd2f d0bb 2111 26bd c241 633d
000002c0: 5b78 5c3c 14d9 423d b4a8 c03c e2f4 143d
000002d0: c6b7 d43c c061 59bc cc49 e5bc 8eca 34bd
000002e0: 6588 893d b50f e6bb 5f5a b63c 5921 b13d
000002f0: 114c 94ba 1eea 1dbd 9c9d 973d b0a7 3ebd
00000300: 2303 0ebd 2af4 f5bc 9a6c 5ebd 5999 f03b
00000310: 0842 d93b c1d0 66bc 2ebc 403d 4aaf 823d
00000320: 87ad 31bd 0a15 e53b a7ee 5e3d 9f4a 4bbd
00000330: 50af 343d 3029 583d cea7 cdbc b953 973d
00000340: b9a3 863d ec10 6cbd 9071 9abc 74dd 943c
00000350: f152 0c3d dc90 763d f661 cf39 852a 9abb
00000360: cfc1 a63c 2cc7 1a3d 3389 e1bb e13b aabc
00000370: beca 23bd f226 18bc 9506 0e3c 174b 88bd
00000380: d2cb 92bc 0a69 073c 48b2 21bd bbe4 b6bb
00000390: 4c85 07bd 997b 503d 9eb6 9c3d c519 193d
000003a0: 82a1 84bc e50b 4d3d ae42 8f3d a0d9 5cbd
000003b0: 1c9d 1b3c 4661 d2bc 7254 9cbd c32b 55bd
000003c0: c603 4cbd 4b3e 99bd b79c 86ba 3e98 39bd
000003d0: 3f2f 6b3d 7e94 6a3d b3e3 f73c a1dd 9fbd
000003e0: b56e bfbd 8329 96bd 39f5 723d 4f1d b3bd
000003f0: ed1e 33bd 3f8e cfbb fb48 43bd 1a44 a73c

hidden.1.bn.running_mean f4 [64]
0.13474542 0.07024802 -0.081967115 -0.09365677 -0.23529151 -0.10617185 0.035852414 -0.028367758
0.21190965 -0.0044752075 -0.4013192 0.19597763 -0.23506342 -0.46109042 -0.18963538 0.2699775
-0.120613165 -0.041355707 0.21365498 -0.010329299 -0.1691884 0.18193859 -0.17022686 -0.54096264
0.24098526 -0.26786345 -0.20610292 0.30065984 0.44653487 -0.34694466 -0.011422553 0.07297762
-0.25995466 0.15247671 0.515744 0.08593108 -0.19958147 -0.23424469 0.03018712 0.07920306
0.011050058 0.079449475 0.23334056 -0.053583544 -0.10393625 -0.18105704 -0.026859941 0.050829154
0.20616947 0.021352835 -0.12400496 -0.24108821 -0.22030003 -0.073815666 -0.26204252 -0.16783844
-0.0051872404 -0.18614788 -0.06910162 0.3170678 -8.8422974e-05 -0.27253166 -0.11522601 0.10216186
00000000: b4fa 093e 32de 8f3d 60de a7bd 1fcf bfbd
00000010: 42f0 70be a070 d9bd fbd9 123d 8063 e8bc
00000020: d8fe 583e c3a4 92bb b679 cdbe 5cae 483e
00000030: 77b4 70be 0b14 ecbe c72f 42be 7e3a 8a3e
00000040: 0904 f7bd 9a64 29bd 5fc8 5a3e 383c 29bc
00000050: b93f 2dbe 1c4e 3a3e f34f 2ebe 877c 0abf
00000060: d7c4 763e 6625 89be a50c 53be 16f0 993e
00000070: 38a0 e43e bba2 b1be a925 3bbc 4a75 953d
00000080: c718 85be db22 1c3e cc07 043f a2fc af3d
00000090: 165f 4cbe d7dd 6fbe fb4a f73c 3735 a23d
000000a0: 4d0b 353c 68b6 a23d d4f0 6e3e 6b7a 5bbd
000000b0: 87dc d4bd 0467 39be 6109 dcbc 3b32 503d
000000c0: 171e 533e 24ec ae3c 50f6 fdbd d4df 76be
000000d0: 5596 61be ab2c 97bd 702a 86be d7dd 2bbe
000000e0: baf9 a9bb 8d9d 3ebe 2685 8dbd b656 a23e
000000f0: b96f b9b8 4589 8bbe 9dfb ebbd 3d3a d13d

hidden.1.bn.running_var f4 [64]
0.16685544 0.09740882 0.08786599 0.167362 0.17975959 0.15596642 0.149283 0.14239766
0.09307118 0.16166843 0.10944369 0.081532806 0.14984438 0.17876801 0.1449069 0.15263191
0.13606957 0.12418323 0.15527004 0.15974815 0.19849549 0.11066889 0.18923151 0.14945287
0.12727271 0.2075018 0.15976112 0.1312395 0.21822403 0.15944734 0.13458735 0.12423195
0.17384362 0.119502276 0.13111958 0.13193332 0.14488892 0.14842863 0.15172116 0.15110143
0.1739263 0.17669605 0.18723793 0.12375736 0.1470098 0.15088686 0.11964408 0.12081227
0.12013077 0.20781647 0.15267462 0.1958885 0.17579007 0.14429964 0.114494786 0.16130394
0.18310855 0.22720458 0.14673941 0.10681468 0.16907509 0.23926811 0.17946869 0.12268831
00000000: 27dc 2a3e 477e c73d 16f3 b33d f260 2b3e
00000010: e612 383e a9b5 1f3e a5dd 183e b1d0 113e
00000020: 1a9c be3d 698c 253e 0324 e03d acfa a63d
00000030: ce70 193e f60e 373e 7962 143e 8a4b 1c3e
00000040: d255 0b3e c753 fe3d 1cff 1e3e 0595 233e
00000050: 6742 4b3e 5fa6 e23d e8c5 413e 2c0a 193e
00000060: c753 023e 5a7b 543e 6b98 233e a663 063e
00000070: 1f76 5f3e 2a46 233e 44d1 093e 526d fe3d
00000080: 1004 323e 9cbd f43d 3644 063e 8719 073e
00000090: c35d 143e adfd 173e cb5c 1b3e 55ba 1a3e
000000a0: bc19 323e cfef 343e 4dbb 3f3e 8074 fd3d
000000b0: bd89 163e 1682 1a3e f507 f53d 6c6c f73d
000000c0: 1f07 f63d d7cd 543e bc56 1c3e ff96 483e
000000d0: 5002 343e 49c3 133e 3e7c ea3d dc2c 253e
000000e0: cf80 3b3e 51a8 683e db42 163e a8c1 da3d
000000f0: 0522 2d3e b302 753e a4c6 373e 0244 fb3d

code.weight f4 [32, 64]
0.0016323008 -0.020854928 -0.042318802 -0.064364195 0.0952167 0.04958467 -0.0028062144 0.13436824
0.006430479 0.108157985 -0.0045509133 -0.03384243 -0.0860226 -0.0641959 -0.055401515 -0.050806772
0.12316474 -0.11305424 0.118561454 -0.07402261 -0.114656724 0.058183156 -0.0876373 -0.040614832
0.05012662 -0.04217804 0.037370384 0.08467999 0.004649608 -0.05650272 -0.059654735 0.03760083
-0.047705315 -0.0527791 0.07118099 0.016721897 0.05715426 0.072284274 -0.115896024 0.019681616
0.0252466 0.011782514 0.0035577859 -0.013912641 -0.09695954 0.10971572 -0.0034715235 -0.018664917
0.10994823 -0.04254038 -0.06020001 -0.008785909 -0.07284323 -0.054896686 -0.038560346 0.13037175
-0.019152723 -0.103005216 -0.013187043 -0.044137556 -0.078680515 -0.03556726 -0.11124383 -0.044570014
-0.10344179 -0.042909626 -0.11596844 0.02117061 0.030315917 -0.06384106 -0.0004064827 -0.077567704
-0.09722418 0.001943608 -0.01665348 -0.09319968 0.06345821 0.034719124 -0.117220566 -0.08658157
0.06467368 0.029581338 0.08292434 0.005292609 0.013965721 -0.057717282 -0.045345265 -0.08211791
0.044692542 0.11012465 0.049113292 -0.016628833 0.01505836 -0.11804645 -0.010388958 0.11079603
-0.018475164 0.0027606788 0.11756692 0.08568816 -0.010287027 -0.11341706 0.121468365 0.061527196
0.008344707 0.10261493 0.04428178 -0.0018747736 0.11177477 0.03712856 0.0705697 0.0011595557
0.07274399 -0.024718592 0.030981747 -0.116042435 0.0897835 0.026943928 0.081505336 -0.07173633
-0.01533849 0.026544293 -0.012296633 -0.03735115 0.058726512 0.03530053 -0.113815546 0.016689066
0.074740075 0.088703394 0.08154833 0.07139073 -0.0039451914 -0.10561848 -0.06984002 0.030015808
-0.034591015 -0.045720287 -0.010408174 0.05243317 -0.052181568 -0.065660305 -0.0032900523 0.119015515
-0.078750215 0.10049645 0.040893704 0.013129108 -0.10997791 -0.050712526 -0.012244705 -0.11509154
0.03468359 -0.048886225 0.10669642 -0.029214716 -0.10139299 0.10183801 -0.012802417 -0.029537035
-0.053791706 -0.058873285 0.012666004 -0.06315581 -0.10701792 0.020286538 -0.03373147 0.09906523
-0.07050984 0.011990556 0.08312184 0.09599427 -0.006895013 0.05219415 0.025995765 -0.03717661
0.03305433 -0.10778621 -0.0886456 0.04978463 0.016909052 -0.045873616 0.061509285 -0.10308427
-0.0028211707 0.07037018 -0.0055851173 -0.00084661134 0.0130718695 0.042320084 -0.052999556 -0.05981193
0.10838188 0.07619546 -0.057831306 0.08390054 0.020289429 0.0591898 -0.015246438 0.030319678
0.10902866 -0.066287436 0.030130127 0.048311252 -0.08644266 -0.032359872 0.079078086 0.033386093
-0.12094003 -0.014890324 -0.07085976 0.045383662 -0.020784097 0.040854618 -0.010033578 0.04039033
0.09520473 -0.079703875 -0.05364968 -0.09331459 -0.05931867 -0.09565067 0.04418808 -0.03302234
-0.09193912 -0.052518517 -0.04915323 0.07923801 -0.08025072 0.005570753 0.09508119 -0.04959272
0.05004963 -0.089921705 0.109510385 -0.017029118 0.06761571 0.004974253 0.09431247 0.04136154
0.048401333 -0.050293114 0.028661733 -0.067622446 0.10709853 0.07931624 -0.089634895 0.09213113
0.06588101 -0.07467135 -0.023965586 -0.0031763832 0.017839866 -0.024856068 -0.09090906 0.071458735
00000000: edf2 d53a f4d7 aabc 7b56 2dbd 60d1 83bd
00000010: f900 c33d 4c19 4b3d 77e8 37bb d497 093e
00000020: c5b6 d23b ef81 dd3d d41f 95bb 5c9e 0abd
00000030: 9e2c b0bd 2479 83bd b3ec 62bd c31a 50bd
00000040: cc3d fc3d fb88 e7bd 59d0 f23d 2b99 97bd
00000050: 25d1 eabd 7651 6e3d 2f7b b3bd bd5b 26bd
00000060: 9251 4d3d e1c2 2cbd b011 193d b46c ad3d
00000070: bd5b 983b 656f 67bd 8658 74bd 5403 1a3d
00000080: a666 43bd e62e 58bd 57c7 913d 5cfc 883c
00000090: 961a 6a3d c709 943d e55a edbd 573b a13c
000000a0: f5d1 ce3c 720b 413c be29 693b d9f1 63bc
000000b0: b992 c6bd a3b2 e03d 8082 63bb 2be7 98bc
000000c0: 8a2c e13d d23e 2ebd 4994 76bd c6f2 0fbc
000000d0: d52e 95bd 59db 60bd 74f1 1dbd 2c80 053e
000000e0: 2ce6 9cbc 66f4 d2bd 780e 58bc 95c9 34bd
000000f0: 4023 a1bd faae 11bd ced3 e3bd 0c8f 36bd
00000100: 4ad9 d3bd 01c2 2fbd dd80 edbd fd6d ad3c
00000110: 1659 f83c 1abf 82bd 2f1d d5b9 d1db 9ebd
00000120: 791d c7bd aac0 fe3a e16c 88bc 79df bebd
00000130: 61f6 813d a435 0e3d 5611 f0bd ae51 b1bd
00000140: a273 843d 9054 f23c 3dd4 a93d 9f6d ad3b
00000150: 7bd0 643c f568 6cbd f5bb 39bd 6f2d a8bd
00000160: 870f 373d 0889 e13d 052b 493d 3139 88bc
00000170: 57b7 763c 56c2 f1bd 7336 2abc 07e9 e23d
00000180: 3a59 97bc 81ec 343b edc6 f03d 467d af3d
00000190: eb8a 28bc 3447 e8bd 68c4 f83d f103 7c3d
000001a0: 3db8 083c c727 d23d d060 353d f7ba f5ba
000001b0: 2cea e43d 1e14 183d d986 903d 3cfc 973a
000001c0: cdfa 943d a57e cabc 6fcd fd3c a8a7 edbd
000001d0: 69e0 b73d 83b9 dc3c 45ec a63d 7fea 92bd
000001e0: 4a4e 7bbc 6b73 d93c d177 49bc 85fd 18bd
000001f0: 368b 703d 4a97 103d 2018 e9bd 82b7 883c
00000200: 5311 993d 20aa b53d d002 a73d 4e35 923d
00000210: aa46 81bb 804e d8bd 4908 8fbd b6e3 f53c
00000220: 4faf 0dbd 3245 3bbd 0c87 2abc 2ac4 563d
00000230: 57bc 55bd e978 86bd eb9d 57bb 68be f33d
00000240: cb47 a1bd 15d1 cd3d 2880 273d 781b 573c
00000250: 193c e1bd f0b7 4fbd 049e 48bc 1db5 ebbd
00000260: 6110 0e3d ec3c 48bd a783 da3d b353 efbc
00000270: 21a7 cfbd 7290 d03d 3bc1 51bc a7f7 f1bc
00000280: b154 5cbd 1d25 71bd 1285 4f3c d557 81bd
00000290: 362c dbbd f42f a63c 032a 0abd b6e2 ca3d
000002a0: 7767 90bd 0974 443c c93b aa3d a598 c43d
000002b0: 90ef e1bb 88c9 553d 12f5 d43c 8046 18bd
000002c0: fa63 073d 04bf dcbd d38b b5bd f8ea 4b3d
000002d0: da84 8a3c f9e5 3bbd 29f1 7b3d d91d d3bd
000002e0: 64e3 38bb 3e1e 903d 5c03 b7bb 20ef 5dba
000002f0: 652b 563c d357 2d3d 1016 59bd 5bfd 74bd
00000300: 52f7 dd3d 5e0c 9c3d 85e0 6cbd 0cd4 ab3d
00000310: 0436 a63c 0171 723d 32cc 79bc f960 f83c
00000320: 6b4a df3d b5c1 87bd 75d3 f63c 05e2 453d
00000330: d908 b1bd c98b 04bd b1f3 a13d dbbf 083d
00000340: 68af f7bd 8cf6 73bc ec1e 91bd 38e4 393d
00000350: 6943 aabc 2c57 273d e063 24bc 5570 253d
00000360: b3fa c23d c93b a3bd c4bf 5bbd b81b bfbd
00000370: 22f8 72bd 80e4 c3bd 8ffe 343d 6f42 07bd
00000380: 944a bcbd a81d 57bd e654 49bd 8a47 a23d
00000390: 7d5a a4bd dd8a b63b edb9 c23d bc21 4bbd
000003a0: d700 4d3d df28 b8bd fb46 e03d a680 8bbc
000003b0: 1b7a 8a3d 0fff a23b e526 c13d b86a 293d
000003c0: 7a40 463d 2700 4ebd 03cc ea3c a37d 8abd
000003d0: 7956 db3d 8e70 a23d 8092 b7bd 3faf bc3d
000003e0: 9fec 863d 4bed 98bd 7a53 c4bc de2a 50bb
000003f0: e924 923c f49e cbbc 872e babd f558 923d

encoder.hidden.0.linear.weight f4 [128, 274]
-0.03220079 0.021736162 0.0024136403 -0.011123366 0.01889494 0.013473571 -0.012620697 0.008141956
0.03084982 0.042401228 0.030268738 -0.028525904 0.039488323 0.042354707 -0.008702879 -0.008529588
-0.032878093 -0.041172102 -0.03312189 -0.024746379 0.015283309 -0.010590113 -0.051024854 0.042797714
-0.02075724 0.019534232 0.031812314 0.03797367 0.0011447517 0.0038444279 0.006945482 0.0027651477
0.0010864983 0.01512125 -0.054114018 -0.04161485 0.037724625 -0.004059249 -0.033341236 -0.004212347
-0.0011836346 -0.011287674 0.0005231247 0.020382274 -0.034146644 0.015326847 -0.019447075 -0.04663784
0.0076289466 -0.015379519 0.022373002 0.046362862 0.015955536 -0.009148446 0.004132221 -0.02566553
0.009963827 0.0005092288 -0.016154552 0.0270135 0.004681805 0.038697787 -0.023029577 0.02161655
0.0026318221 0.011980167 -0.017354105 0.027568532 -0.0032152303 5.9018707e-10 0.020395897 0.042042844
0.0082182 0.014613686 -0.02761154 0.008216949 0.014739179 0.038138136 0.009714582 0.03299122
-2.3036253e-11 0.00043838585 0.006944853 -0.0049229646 -0.045143496 -0.00086435495 0.03770553 -0.025531318
0.023732549 -0.020793304 0.04005437 -0.0293794 -0.012475335 -0.049876664 -0.026748762 0.017921198
0.003708456 -0.042914413 -0.042568788 0.027482437 -0.0154160885 0.034749325 -0.031917535 -0.03524814
0.0073212925 0.050718706 -0.019634308 0.00046440636 0.035866715 0.00065079785 9.668717e-05 0.030864362
-0.008766531 -0.030020501 -0.014761869 -0.0061956486 0.008399327 -0.023338629 -0.036570556 0.009751093
-0.0058997357 0.037159115 -0.04816758 0.035966154 0.007602215 0.05620242 0.02001766 0.015707586
-0.0017775344 0.036275864 -0.02748146 -0.03079369 -0.016271181 -0.02660481 -0.002893598 0.00498038
-0.032477736 0.005960715 0.0027130453 0.026131785 -0.020377023 -0.040083226 0.0040514977 -0.026635544
0.020192992 0.0008157564 0.006606885 0.020159494 -0.030916713 -0.028153516 0.047078907 -0.0068198456
0.023238229 -0.03159176 0.03262178 -0.03471704 0.009175418 -0.03490031 -0.005702824 0.014360273
0.033809766 -0.0053060395 0.018058775 -0.018113738 -0.009459788 -0.048962336 -0.0011625983 -0.026758151
-0.04651348 0.04242209 0.036523163 0.008410518 -0.027621564 -0.05088653 0.025466759 0.0062161535
-0.0546076 -0.025230087 -0.027500816 0.019700767 -0.012539076 -0.013741465 0.017906623 0.00075309386
0.014381991 -0.024646677 0.016430695 -8.2582555e-05 -0.0031932655 0.027170952 -0.0049090884 -0.02031536
0.017486945 -0.006981945 0.044593435 0.05040802 -0.0028447004 -0.020724714 0.038490854 -0.016107393
0.031065563 -0.028704332 -0.02374255 -0.03868469 0.03982506 0.029182231 -0.03086721 0.03559151
-0.03383579 0.0018550948 0.016813125 -0.042430162 -0.009296359 0.043465767 0.006813265 0.020415705
0.016522743 0.02338387 0.0060405135 -0.049738478 -0.03419705 0.03665548 0.019020533 0.015233654
0.01632904 -0.0052661225 0.028242974 0.03283684 -0.037473217 -0.008103412 -0.01908481 0.024668891
0.023949135 0.025632573 -0.030074652 0.033013944 0.043197412 0.03432636 0.027889641 0.00433276
-0.0059612975 0.00852401 -0.014859309 -0.051361427 -0.009491444 -0.014313279 0.050042145 0.04792535
0.014727762 -0.030332377 -0.035844464 0.022094037 0.019803274 0.014671005 0.02666743 -0.0019440799
00000000: fae4 03bd 0910 b23c 2a2e 1e3b c73e 36bc
00000010: 90c9 9a3c 41c0 5c3c 0ac7 4ebc d765 053c
00000020: c3b8 fc3c e9ac 2d3d 25f6 f73c 28af e9bc
00000030: 82be 213d 217c 2d3d 8596 0ebc afbf 0bbc
00000040: 2eab 06bd 14a4 28bd d2aa 07bd ebb8 cabc
00000050: d866 7a3c 2782 2dbc 70ff 50bd a84c 2f3d
00000060: 160b aabc 4106 a03c a14d 023d 478a 1b3d
00000070: 7e0b 963a ccf2 7b3b ed96 e33b 7b37 353b
00000080: d568 8e3a 1fbf 773c a9a6 5dbd 5574 2abd
00000090: 2385 1a3d 7303 85bb d290 08bd ba07 8abb
000000a0: 3024 9bba f0ef 38bc 4e22 093a baf8 a63c
000000b0: 5add 0bbd 751d 7b3c 794f 9fbc 5207 3fbd
000000c0: 3efc f93b 61fa 7bbc 9647 b73c fce6 3d3d
000000d0: 2fb5 823c 5de3 15bc 9567 873b 8440 d2bc
000000e0: 523f 233c c47d 053a 8d56 84bc 6a4b dd3c
000000f0: d469 993b 9281 1e3d 86a8 bcbc 3115 b13c
00000100: a67a 2c3b 7648 443c 322a 8ebc 67d7 e13c
00000110: 9db6 52bb b93a 2230 4c15 a73c 1e35 2c3d
00000120: a1a5 063c 3e6e 6f3c 9931 e2bc 62a0 063c
00000130: 997c 713c bc36 1c3d e929 1f3c cd21 073d
00000140: 08a1 caad 27d7 e539 a691 e33b d250 a1bb
00000150: 63e8 38bd e195 62ba 1d71 1a3d 0e27 d1bc
00000160: c36a c23c b856 aabc 0d10 243d 11ad f0bc
00000170: 5965 4cbc 794b 4cbd 3820 dbbc 7acf 923c
00000180: 9109 733b 06c7 2fbd 9c5c 2ebd d922 e13c
00000190: c393 7cbc 4f55 0e3d f6bb 02bd 5b60 10bd
000001a0: 74e7 ef3b 6bbe 4f3d 21d8 a0bc 917b f339
000001b0: fae8 123d 4e9a 2a3a 87c4 ca38 42d7 fc3c
000001c0: 7fa1 0fbc 8eed f5bc c4db 71bc de04 cbbb
000001d0: 559d 093c a730 bfbc 02cb 15bd 0cc3 1f3c
000001e0: 9252 c1bb 2834 183d 5e4b 45bd 3f51 133d
000001f0: 001c f93b 8234 663d 13fc a33c 32ad 803c
00000200: 28fc e8ba 0096 143d cc20 e1bc 0c43 fcbc
00000210: 244b 85bc 55f2 d9bc 85a2 3dbb 7532 a33b
00000220: 6007 05bd 1a52 c33b 59cd 313b 5312 d63c
00000230: b7ed a6bc 4f2e 24bd 6dc2 843b c932 dabc
00000240: c66b a53c 7cd8 553a 927e d83b 8625 a53c
00000250: 0c45 fdbc 34a2 e6bc d0d5 403d 0379 dfbb
00000260: 195e be3c 5d66 01bd 6a9e 053d 7433 0ebd
00000270: 7e54 163c a1f3 0ebd c1de babb 5a47 6b3c
00000280: 1c7c 0a3d 49de adbb ffef 933c 4363 94bc
00000290: 3afd 1abc bb8c 48bd 5362 98ba e933 dbbc
000002a0: eb84 3ebd c9c2 2d3d 5099 153d 45cc 093c
000002b0: 9e46 e2bc 656e 50bd aa9f d03c e0b0 cb3b
000002c0: 38ac 5fbd 54af cebc 6449 e1bc 8163 a13c
000002d0: b270 4dbc e223 61bc e9b0 923c 466b 453a
000002e0: 71a2 6b3c d4e7 c9bc aa99 863c 2c30 adb8
000002f0: 1b46 51bb 9e95 de3c 6bdc a0bb 666c a6bc
00000300: c840 8f3c cdc8 e4bb 9ba7 363d a478 4e3d
00000310: 276e 3abb e0c6 a9bc 96a8 1d3d a7f3 83bc
00000320: 357d fe3c 5925 ebbc bc7f c2bc d673 1ebd
00000330: 9a1f 233d 930f ef3c 3bdd fcbc 67c8 113d
00000340: 6697 0abd a726 f33a aebb 893c 40cb 2dbd
00000350: c14f 18bc 2909 323d cf41 df3b d63e a73c
00000360: b45a 873c 888f bf3c 80ef c53b 93ba 4bbd
00000370: 3512 0cbd 0e24 163d f3d0 9b3c 9396 793c
00000380: 7bc4 853c 708f acbb cf5d e73c ec7f 063d
00000390: 847d 19bd 2cc4 04bc bf57 9cbc 6a16 ca3c
000003a0: fa30 c43c 67fb d13c 1e5f f6bc a139 073d
000003b0: c5ef 303d cc99 0c3d d178 e43c d3f9 8d3b
000003c0: fd56 c3bb 4aa8 0b3c 7674 73bc 5c60 52bd
000003d0: 0082 1bbc 3e82 6abc fef8 4c3d 5f4d 443d
000003e0: b64c 713c 9b7b f8bc a5d1 12bd 8efe b43c
000003f0: 7a3a a23c a85e 703c a775 da3c 7fd0 feba

encoder.hidden.0.bn.running_mean f4 [128]
0.29476812 -0.008090312 0.17147611 -0.09392921 -0.19580673 0.0045136157 -0.37134928 -0.11676718
-0.22665285 0.055462696 0.09249433 0.039187953 -0.08968921 0.026035314 -0.12021411 -0.11329196
0.08389926 -0.30410653 -0.04859577 -0.15810047 -0.0928087 -0.117485866 -0.04255296 0.1465457
0.32533252 -0.049029198 0.35827473 -0.24535678 0.015445631 0.08271528 -0.17171668 0.075425334
0.27147058 -0.030377435 -0.14958556 -0.17991732 -0.2321664 0.33095732 0.14173846 -0.08358751
0.018309178 0.14798112 0.37181973 0.06247767 -0.19168054 -0.26847968 -0.26683784 -0.24984619
-0.049788244 0.08145477 -0.06329193 -0.15034674 -0.11410642 0.22034325 -0.06545164 0.28888962
-0.34080064 -0.118032 -0.08334611 0.024348732 -0.07480514 0.19649898 -0.0035298483 -0.15891762
-0.13826141 0.4001214 0.20418026 -0.021206755 -0.21902958 0.14720494 0.07815741 -0.19427493
0.34062368 -0.29520714 -0.13768838 -0.16572955 0.087732315 0.14052033 0.028175592 0.028829861
-0.26399246 0.028633056 -0.27949095 -0.07542663 -0.038875524 0.02771679 -0.3904287 -0.24805373
0.5846727 0.26584274 0.23367688 -0.035163157 -0.026366672 -0.040313274 -0.021223545 -0.17155404
-0.022010425 -0.30528423 -0.030944541 -0.276669 -0.07247283 -0.20258851 0.5057786 -0.0126084965
-0.05351199 -0.18978067 0.03798098 0.06346086 -0.23375346 0.044403855 -0.1548293 -0.23994265
-0.09501697 0.42135873 0.25681219 -0.2963025 0.021962864 0.0040854695 -0.34337804 -0.059312195
0.03077488 -0.017465819 -0.18148728 -0.06411551 0.054147683 -0.15476437 -0.19679789 0.12940373
00000000: d9eb 963e 3a8d 04bc 6f97 2f3e f55d c0bd
00000010: 8f81 48be f4e6 933b 7e21 bebe a223 efbd
00000020: af17 68be da2c 633d ab6d bd3d 8c83 203d
00000030: faae b7bd 0348 d53c d132 f6bd 9d05 e8bd
00000040: 60d3 ab3d dab3 9bbe 5c0c 47bd 17e5 21be
00000050: 7d12 bebd 6e9c f0bd 034c 2ebd 1310 163e
00000060: fc91 a63e d7d2 48bd c96f b73e cf3e 7bbe
00000070: ac0f 7d3c a166 a93d 7fd6 2fbe 9978 9a3d
00000080: 31fe 8a3e 19da f8bc f52c 19be 3f3c 38be
00000090: 07bd 6dbe 3d73 a93e e323 113e ee2f abbd
000000a0: 21fd 953c 5d88 173e 285f be3e 96e8 7f3d
000000b0: e747 44be 2b76 89be f89e 88be aed7 7fbe
000000c0: c2ee 4bbd c2d1 a63d 339f 81bd 7ff4 19be
000000d0: a0b0 e9bd a9a1 613e 820b 86bd 57e9 933e
000000e0: 6c7d aebe c3ba f1bd 5eb1 aabd fe76 c73c
000000f0: 7033 99bd 0737 493e 0755 67bb 4dbb 22be
00000100: 6694 0dbe b6dc cc3e a114 513e cab9 adbc
00000110: 4a49 60be e4bc 163e fe10 a03d 02f0 46be
00000120: 3a66 ae3e 6425 97be 2ffe 0cbe 02b5 29be
00000130: 00ad b33d 90e4 0f3e 80d0 e63c 9a2c ec3c
00000140: 052a 87be df8f ea3c 7019 8fbe 4779 9abd
00000150: f13b 1fbd 520e e33c 45e6 c7be cc01 7ebe
00000160: 1cad 153f 8a1c 883e fe48 6f3e 3e07 10bd
00000170: ebfe d7bc 881f 25bd 00dd adbc ddab 2fbe
00000180: 354f b4bc 374e 9cbe 687f fdbc 8fa7 8dbe
00000190: a36c 94bd 5d73 4fbe b57a 013f de93 4ebc
000001a0: 632f 5bbd dd55 42be f291 1b3d c4f7 813d
000001b0: 115d 6fbe d1e0 353d 928b 1ebe 87b3 75be
000001c0: 4298 c2bd 55bc d73e e37c 833e f6b4 97be
000001d0: 77eb b33c 67df 853b 3fcf afbe 58f1 72bd
000001e0: 9a1b fc3c 7a14 8fbc cdd7 39be fe4e 83bd
000001f0: f6c9 5d3d 8d7a 1ebe 6385 49be 6982 043e

encoder.hidden.0.bn.running_var f4 [128]
0.003736912 0.0029335585 0.0025983907 0.003230523 0.0037780982 0.0038605721 0.0031953144 0.0029824523
0.0037604521 0.0033878207 0.0031751522 0.004690893 0.0036567256 0.0045982418 0.0031953414 0.0053405715
0.0021973376 0.0034690914 0.004010994 0.002985362 0.004596083 0.003112447 0.0047797095 0.0047656465
0.0022868728 0.0044114445 0.0041758595 0.004115215 0.0041159503 0.0047066 0.0020624145 0.0057048127
0.0055210176 0.0042678933 0.0032416005 0.00393038 0.0043410473 0.005247896 0.0029941648 0.0033077537
0.003638762 0.0041531553 0.0030453382 0.0040269205 0.0033545634 0.0030281483 0.0047564637 0.0051780036
0.0052304626 0.0040998952 0.0028922572 0.0032465376 0.0040465817 0.005445308 0.0029383283 0.0030853439
0.0048585366 0.003231526 0.0035672497 0.0024672588 0.003046182 0.0030057654 0.004896025 0.004076043
0.0025810017 0.003596925 0.0042854035 0.0031348316 0.004354531 0.0036830164 0.0034676313 0.0027483304
0.0037576945 0.0032030507 0.0032771903 0.0038896454 0.0041669155 0.0035261242 0.0034707417 0.004914006
0.003582608 0.0046551307 0.0043118047 0.003803118 0.0034086416 0.003124165 0.002704249 0.00229043
0.0053642523 0.005217146 0.0046070274 0.0038970273 0.0034276464 0.0035761485 0.003657404 0.0031614776
0.003637068 0.0036684906 0.0028043208 0.0023220805 0.0030381707 0.0033223743 0.0038206975 0.003268795
0.003306412 0.0037848307 0.0035171923 0.005414804 0.003968845 0.0035640195 0.0031851747 0.0036622197
0.0035920371 0.003540951 0.003161814 0.0033448625 0.0036463442 0.0032086195 0.0033189 0.0031789872
0.0018715945 0.0032781474 0.0031831737 0.006203432 0.00339704 0.0038653577 0.0022757598 0.0026632214
00000000: fbe6 743b f240 403b c349 2a3b 2fb7 533b
00000010: f899 773b a701 7d3b 7b68 513b 3f75 433b
00000020: eb71 763b 3306 5e3b 3716 503b 10b6 993b
00000030: ada5 6f3b d9ac 963b ef68 513b f6ff ae3b
00000040: 3501 103b b259 633b a86e 833b 10a6 433b
00000050: bd9a 963b 32fa 4b3b 1c9f 9c3b 2429 9c3b
00000060: 5cdf 153b e18d 903b a6d5 883b edd8 863b
00000070: 18df 863b d339 9a3b 9329 073b 70ef ba3b
00000080: a7e9 b43b afd9 8b3b 0871 543b 6bca 803b
00000090: 583f 8e3b 8bf6 ab3b c039 443b e6c6 583b
000000a0: 4c78 6e3b 3117 883b 4c94 473b 42f4 833b
000000b0: 3cd8 5b3b e673 463b 1cdc 9b3b 3eac a93b
000000c0: 4d64 ab3b 6a58 863b 068c 3d3b ddc3 543b
000000d0: 3099 843b 8e6e b23b f890 403b 7b33 4a3b
000000e0: 5c34 9f3b 02c8 533b 85c8 693b bcb1 213b
000000f0: 74a2 473b 60fc 443b d66e a03b 5490 853b
00000100: 0626 293b 63ba 6b3b 926c 8c3b bf71 4d3b
00000110: 74b0 8e3b c35e 713b 3341 633b 551d 343b
00000120: a743 763b 46ea 513b 21c6 563b 6ce9 7e3b
00000130: 9f8a 883b 8c16 673b 6275 633b ac05 a13b
00000140: 30ca 6a3b 118a 983b 0a4a 8d3b bb3d 793b
00000150: 8463 5f3b cbbe 4c3b c539 313b 0a1b 163b
00000160: 9cc6 af3b 98f4 aa3b 8cf6 963b 4565 7f3b
00000170: 5da2 603b d15d 6a3b 0fb1 6f3b cb30 4f3b
00000180: e05b 6e3b 0f6b 703b b2c8 373b 0c2e 183b
00000190: 0c1c 473b 31bc 593b ab64 7a3b 4839 563b
000001a0: 63b0 583b ec0a 783b b280 663b ab6e b13b
000001b0: 160d 823b 5392 693b 5dbe 503b da01 703b
000001c0: 6268 6b3b 4d0f 683b 7036 4f3b 7b35 5b3b
000001d0: 81f7 6e3b b447 523b e781 593b 8e56 503b
000001e0: 4a50 f53a 30d6 563b cb9c 503b 2946 cb3b
000001f0: e0a0 5e3b f151 7d3b ea24 153b 7189 2e3b

encoder.hidden.1.linear.weight f4 [64, 128]
0.0041046636 0.08442299 -0.014636226 0.044001557 -0.07199439 -0.063712746 -0.017601661 -0.052145917
-0.014765345 -0.056532875 -0.042882234 0.022141552 -0.06546664 0.053974725 0.053414844 0.026936574
0.046385556 -0.017056245 -0.04043937 0.013471908 0.042817306 0.055981796 -0.0470663 -0.055271372
-0.051338565 -0.05878844 0.0084796995 -0.06333108 0.049640585 -0.06682395 0.0022166274 0.033347003
0.017282913 0.05470874 -0.0018725619 -0.05430489 -0.013658284 -0.051541753 0.029277029 -0.042126156
0.06534425 0.002774446 -0.04272818 -0.026127238 0.06725373 -0.03436484 -0.07035899 0.032004565
0.054663602 -0.031652346 0.06784264 -0.037565406 -0.015859181 -0.05873449 -0.052222587 -0.03944344
-0.028767943 -0.021517776 0.008539425 0.0407389 0.039100215 0.030934855 0.04982319 0.011643114
0.05686364 0.04003078 -0.008148339 -0.029395418 0.061104707 0.03970071 -0.00081509724 0.041633185
0.06149993 0.082858086 -0.015977444 0.049579505 -0.030292664 -0.045775652 0.053936478 0.088696726
0.07452247 0.015376041 0.065559484 0.00397737 -0.05119276 -0.06339711 -0.017651647 -0.022393512
-0.058067165 -0.049598936 -0.06726145 0.014705957 0.057528004 -0.06435236 -0.053499404 0.06457386
-0.00069098437 0.046100013 0.04786898 0.0061791562 -0.067584805 -0.047200795 0.030875118 0.07297001
-0.018468993 -0.056094714 -0.0008640518 0.060820065 -0.0076903813 0.0070992024 0.038723066 0.016827088
0.058443658 -0.01271571 -0.04693327 -0.047578 -0.023633365 -0.059942544 0.03999965 0.053847257
0.013849378 -0.02229816 0.002628484 -0.05473941 0.03031932 0.050376803 0.01925817 -0.034418307
-0.0039886725 -0.018252475 0.049273483 0.0443869 0.028457962 0.023415107 -0.05486392 -0.06471998
0.0731863 -0.04121148 -0.019699661 -0.01849037 -0.0631343 -0.059092466 0.013041511 0.011462532
-0.019010248 -0.0043016383 -0.057701763 0.013275655 -0.058430184 -0.0657259 0.01346619 0.0060016243
0.0459578 0.06948371 -0.051488835 -0.05695717 0.03541988 0.056550752 -0.05187062 0.016267266
0.030959263 -0.06823115 -0.012135059 -0.023104722 -0.0070145996 0.009554145 -0.050106972 -0.04071223
-0.036606833 -0.04424228 -0.035897277 0.04975083 0.042820957 -0.04749147 0.020865323 -0.032951266
0.008665295 -0.047346924 0.026839525 -0.02896858 0.01563653 0.055228364 -0.014121916 -0.06817358
0.014528716 -0.04686869 0.0032735716 0.034613546 0.042975713 -0.068973385 0.063617885 -0.016855177
0.066466376 0.07269915 0.039544284 -0.043697976 0.010088152 0.05281445 -0.058240455 0.07033342
0.02653631 -0.054051623 0.022757202 0.026918273 -0.020656321 -0.042563308 0.031663343 -0.034115843
-0.045042496 0.052821707 -0.031544536 0.049503233 -0.011533828 0.0046136486 0.05223208 -0.011264144
-0.044723243 0.031022692 -0.050968632 -0.045066655 0.0079570245 0.0044196933 -0.019748023 0.07507972
-0.067315646 0.025355576 0.04448556 -0.004174853 -0.013585462 -0.002237622 -0.0035434759 -0.037206843
-0.024285123 0.052876256 0.0018327567 0.012261642 0.050377104 -0.0017602517 0.031196931 -0.07474051
-0.05956961 -0.0375154 -0.040358994 -0.048031922 -0.031429052 -0.011233816 0.07245129 0.04110523
0.027381565 0.0102804145 0.03357742 -0.044172246 -0.027579306 0.069296196 -0.0228121 -0.058102332
00000000: 6a80 863b f6e5 ac3d c8cc 6fbc fa3a 343d
00000010: cb71 93bd d47b 82bd 5c31 90bc f596 55bd
00000020: 58ea 71bc 048f 67bd 48a5 2fbd 3362 b53c
00000030: 6013 86bd 9a14 5d3d 86c9 5a3d 17aa dc3c
00000040: c8fe 3d3d 8ab9 8bbc c1a3 25bd 47b9 5c3c
00000050: 3361 2f3d 2b4d 653d 98c8 40bd 3c64 62bd
00000060: 6348 52bd 26cc 70bd 70ee 0a3c bab3 81bd
00000070: ed53 4b3d ffda 88bd d644 113b de96 083d
00000080: e594 8d3c 4616 603d c070 f5ba ce6e 5ebd
00000090: ffc6 5fbc 721d 53bd 61d6 ef3c 7a8c 2cbd
000000a0: 35d3 853d 7bd3 353b be03 2fbd ca08 d6bc
000000b0: 53bc 893d 25c2 0cbd 6018 90bd 3817 033d
000000c0: f1e6 5f3d e4a5 01bd 15f1 8a3d 2fde 19bd
000000d0: 1deb 81bc 9493 70bd 5ae7 55bd 728f 21bd
000000e0: c0aa ebbc 0c46 b0bc f2e8 0b3c d5dd 263d
000000f0: 8c27 203d 186b fd3c 6713 4c3d c2c2 3e3c
00000100: d9e9 683d 51f7 233d 9c80 05bc a9ce f0bc
00000110: ee48 7a3d 369d 223d 40ac 55ba 8f87 2a3d
00000120: 5ae7 7b3d 80b1 a93d 21e3 82bc e113 4b3d
00000130: 5228 f8bc 407f 3bbd 7fec 5c3d a1a6 b53d
00000140: 3d9f 983d caeb 7b3c 0d44 863d 9954 823b
00000150: 80af 51bd 58d6 81bd 309a 90bc 9972 b7bc
00000160: d6d7 6dbd 4128 4bbd 5fc0 89bd 41f1 703c
00000170: 7ca2 6b3d 2ccb 83bd 3122 5bbd 4d3f 843d
00000180: 2d23 35ba 5ed3 3c3d 4312 443d 857a ca3b
00000190: e769 8abd 9f55 41bd d1ed fc3c 4d71 953d
000001a0: 494c 97bc 92c3 65bd 8981 62ba 761e 793d
000001b0: 98ff fbbb 6da0 e83b 149c 1e3d f6d8 893c
000001c0: 9e62 6f3d 8e55 50bc 1a3d 40bd 26e1 42bd
000001d0: c29a c1bc 5086 75bd acd6 233d f18e 5c3d
000001e0: 80e8 623c a1aa b6bc a542 2c3b 6e36 60bd
000001f0: 3960 f83c e857 4e3d 4fc3 9d3c 36fa 0cbd
00000200: 69b3 82bb 3786 95bc fed2 493d 0acf 353d
00000210: ac20 e93c 0ad1 bf3c fdb8 60bd e98b 84bd
00000220: b3e2 953d 5ecd 28bd 2f61 a1bc 1e79 97bc
00000230: 8e4c 81bd f10a 72bd 10ac 553c 58cd 3b3c
00000240: 61bb 9bbc c2f4 8cbb af58 6cbd 2282 593c
00000250: 7d54 6fbd 4d9b 86bd 4ba1 5c3c 46a9 c43b
00000260: 3f3e 3c3d 7a4d 8e3d f5e5 52bd ec4b 69bd
00000270: 7014 113d c3a1 673d 4a76 54bd ee42 853c
00000280: 489e fd3c c6bc 8bbd 20d2 46bc 1d46 bdbc
00000290: bada e5bb fd88 1c3c f83c 4dbd dec1 26bd
000002a0: 0cf1 15bd 6537 35bd 0609 13bd 87c7 4b3d
000002b0: 0765 2f3d 6a86 42bd c1ed aa3c e8f7 06bd
000002c0: e2f8 0d3c d9ee 41bd 90de db3c 844f edbc
000002d0: 2e18 803c 2337 623d 9c5f 67bc 979e 8bbd
000002e0: da09 6e3c 62f9 3fbd 6b89 563b efc6 0d3d
000002f0: 4d07 303d eb41 8dbd 184a 823d de13 8abc
00000300: 861f 883d 4be3 943d 30f9 213d a6fc 32bd
00000310: c748 253c f753 583d 8b8d 6ebd f80a 903d
00000320: ad62 d93c 3c65 5dbd 506d ba3c b683 dc3c
00000330: 7237 a9bc dd56 2ebd 6cb1 013d 0ebd 0bbd
00000340: 7b7e 38bd 935b 583d d834 01bd e7c3 4a3d
00000350: 62f8 3cbc 172e 973b 4ef1 553d 3f8d 38bc
00000360: b82f 37bd 4d23 fe3c 7cc4 50bd d097 38bd
00000370: 2e5e 023c 13d3 903b 9bc6 a1bc 65c3 993d
00000380: c9dc 89bd 7fb6 cf3c 7e36 363d 35cd 88bb
00000390: 8f95 5ebc 11a5 12bb a939 68bb 3466 18bd
000003a0: 98f1 c6bc c694 583d 1c39 f03a 0ee5 483c
000003b0: 3958 4e3d 3fb8 e6ba b590 ff3c 8d11 99bd
000003c0: 43ff 73bd c0a9 19bd 794f 25bd 1fbd 44bd
000003d0: c0bb 00bd 0a0e 38bc 5861 943d f55d 283d
000003e0: 4e4f e03c 2f6f 283c 7a88 093d f5ed 34bd
000003f0: ffed e1bc 2aeb 8d3d 71e0 babc b6fc 6dbd

encoder.hidden.1.bn.running_mean f4 [64]
0.01380798 -0.16078803 0.06832141 -0.2930761 -0.051899984 0.001934871 -0.32003957 -0.113639586
-0.16609702 -0.19876446 -0.055327736 0.016717702 -0.014761862 0.02835473 -0.018138645 -0.27986556
0.09218406 -0.27927035 0.101344414 0.016945442 -0.26962423 0.20696917 -0.016460141 0.32232705
-0.18710485 0.0578743 0.039874345 0.08346292 -0.24082722 -0.08455851 0.10644269 -0.0783495
0.047953494 0.0701607 0.08532833 -0.21738969 -0.42138344 0.35925353 -0.021091329 -0.04458091
0.3374284 -0.29251832 -0.072315015 -0.19594173 -0.15106666 0.1612653 -0.20768203 -0.068849735
-0.19714043 0.11799691 -0.15614605 0.008157374 -0.04139556 -0.03595481 0.23062283 -0.02570545
-0.037633955 0.060691506 -0.2642714 0.11263796 0.067818016 0.17472067 0.008857307 0.05422272
00000000: de3a 623c 9ea5 24be 18ec 8b3d 120e 96be
00000010: 1495 54bd 7f9b fd3a 3adc a3be dfbb e8bd
00000020: 5615 2abe e988 4bbe 569f 62bd 90f3 883c
00000030: bddb 71bc 2e48 e83c 7f97 94bc 8a4a 8fbe
00000040: ffca bc3d 86fc 8ebe a98d cf3d 2bd1 8a3c
00000050: 300c 8abe baef 533e 6bd7 86bc 0d08 a53e
00000060: 6a98 3fbe 9a0d 6d3d 4853 233d 9bee aa3d
00000070: 699b 76be 032d adbd a0fe d93d b475 a0bd
00000080: e26a 443d 6ab0 8f3d 9fc0 ae3d 679b 5ebe
00000090: 92bf d7be 14f0 b73e b9c7 acbc 799a 36bd
000000a0: 6ac3 ac3e f6c4 95be e519 94bd f3a4 48be
000000b0: 38b1 1abe bb22 253e 99aa 54be 1701 8dbd
000000c0: 2edf 49be 5da8 f13d c0e4 1fbe 82a6 053c
000000d0: 648e 29bd 5a45 13bd 6428 6c3e 3c94 d2bc
000000e0: 1026 1abd a897 783d 954e 87be bbae e63d
000000f0: 2ce4 8a3d fae9 323e 3d1e 113c a518 5e3d
