jets/model.pt (torch, 2003 bytes, 3 tensors)

hidden.weight f4 [10, 6]
000000 5d a3 9c 3c 78 8c be be 70 0e 9b 3e 7a 72 60 bf
       0.019120866 -0.37216544 0.30284452 -0.8767468
000010 99 92 77 be 31 ca 87 3e e3 94 98 3e ff c2 9f be
       -0.24177016 0.26521447 0.29801092 -0.31203458
000020 e9 73 a5 3f 3e 72 41 bc 7c 5b 3c 3e 4a 4c 86 bf
       1.2925998 -0.011807023 0.18394274 -1.0492032
000030 44 e2 17 bf 8b 2f 89 be b9 6d 76 bf 8b 53 83 3f
       -0.5932963 -0.26794085 -0.96261173 1.025987
000040 b0 6e b1 be f2 e5 fa 3e fe dc d7 bf 55 d2 cb be
       -0.3465476 0.4900356 -1.6864316 -0.39808908
000050 2b 4f 38 be ea ce 6a 3f 5a 96 6c 3e bf 0f be 3e
       -0.1799895 0.91721976 0.2310423 0.37121388
000060 fe 92 09 3e 72 38 70 be 50 17 a3 bd db eb 81 be
       0.1343498 -0.23459032 -0.07963431 -0.25375256
000070 1d 0e 43 be 5b 6f a8 be 60 1e 80 bb d8 37 a7 bd
       -0.19048353 -0.32897457 -0.003909871 -0.08164948
000080 8c 2d ea be 52 46 88 bf 4b b9 e4 bd 48 b2 f8 bd
       -0.45737875 -1.064646 -0.11168154 -0.121433794
000090 2a 8a 36 bf 42 67 93 3e 3f 9d 10 3f f1 ac b6 3f
       -0.7130457 0.28789717 0.5648994 1.4271528
0000a0 0b 81 bb 3d c9 d5 ba be d4 ad 72 bf 7e 1e 56 3e
       0.09155472 -0.3649123 -0.9479649 0.2091007
0000b0 06 27 e5 be 80 60 f9 3e 68 1f c3 be 7c ac 9b 3e
       -0.44756335 0.48706436 -0.381099 0.30405033
0000c0 1b f5 19 bd a0 ae 45 be 13 02 af bd 6e 0d 85 bf
       -0.037587266 -0.19304895 -0.085453175 -1.0394723
0000d0 33 13 83 be 57 90 6b 3d fe 36 51 be 62 6c c0 be
       -0.25600585 0.0575107 -0.20431134 -0.3758269
0000e0 54 27 40 be 25 d3 51 3f 46 56 b5 3e 4b fd 26 3f
       -0.18765002 0.81962806 0.35417384 0.65230244

hidden.bias f4 [10]
000000 d7 b2 19 3f 48 1d 3a bf db ea 93 be 6a be c8 be
       0.6003851 -0.7270093 -0.28890118 -0.39207774
000010 f5 e4 64 3f 0a 21 13 bf 29 23 05 3f 2f 5f 8c bc
       0.8941186 -0.5747229 0.52006775 -0.01713523
000020 d6 6a 35 bd 0b ac 8a be
       -0.04429134 -0.27084383

predict.weight f4 [1, 10]
000000 a9 79 d5 be e4 ab 8f 3f 29 24 f4 3e a2 55 92 3f
       -0.41694382 1.1224332 0.47683838 1.1432383
000010 8a 46 f7 be 2a 80 97 bf 9c 2e 48 bf f5 66 21 3f
       -0.48296005 -1.1835988 -0.7819612 0.63047725
000020 1b 16 ad be 83 d8 1d 3f
       -0.33805928 0.61658496
