semi_supervised/Deep-SAD-PyTorch/log/DeepSAD/lhc_test/model.tar (torch_old, 83014 bytes, 78 tensors)

hidden.0.linear.weight f4 [60, 12]
3.558e-42 -7.5802e-41 4.7026e-41 3.914e-41 3.1875e-41 -3.026e-41 -7.22e-41 -5.136e-42
2.929e-41 3.1978e-41 -6.8549e-41 1.6172e-41 -7.2306e-41 -4.4155e-41 -6.3518e-41 -8.67e-43
1.3586e-41 2.0884e-41 3.6776e-41 7.367e-42 -4.0084e-41 -4.7008e-41 -5.2846e-41 3.9375e-41
-2.2155e-41 4.5863e-41 4.6262e-41 -4.419e-41 1.0723e-41 4.8297e-41 -1.072e-42 6.847e-41
3.6095e-41 -5.958e-41 -7.2883e-41 4.9955e-41 -3.8674e-41 -1.9021e-41 2.4596e-41 -2.3364e-41
5.1955e-41 2.0291e-41 7.2133e-41 6.1978e-41 3.829e-41 -6.164e-41 1.5039e-41 -6.6504e-41
2.4285e-41 -1.1592e-41 2.262e-42 9.92e-42 -2.7442e-41 -2.3832e-41 5.2844e-41 2.8762e-41
-2.7369e-41 -4.0848e-41 -3.611e-42 7.0809e-41 -6.4094e-41 -4.5901e-41 -2.538e-42 -7.5014e-41
3.354e-41 -4.678e-41 6.4369e-41 -7.5094e-41 3.5729e-41 5.6584e-41 5.8482e-41 6.2498e-41
-5.5107e-41 1.8623e-41 -6.7205e-41 -2.575e-41 -6.0487e-41 6.8e-43 2.295e-42 3.3237e-41
-5.6289e-41 -5.709e-41 -1.421e-42 -4.0008e-41 2.3189e-41 3.6756e-41 4.1477e-41 2.2296e-41
-1.5812e-41 3.5506e-41 2.338e-41 2.5101e-41 -3.1357e-41 7.0698e-41 -6.153e-41 -2.4052e-41
-3.6351e-41 7.04e-41 -3.4336e-41 5.9488e-41 7.3487e-41 9.724e-42 4.7664e-41 -1.2e-43
6.813e-42 -2.2418e-41 -3.746e-42 -4.276e-41 5.7334e-41 -6.759e-41 -4.3513e-41 3.618e-42
2.256e-42 3.297e-41 3.2926e-41 -6.4555e-41 6.912e-41 -4.4372e-41 -7.1412e-41 1.471e-42
-7.3265e-41 3.9152e-41 -4.7895e-41 1.3678e-41 -6.5959e-41 6.2136e-41 -1.196e-41 1.2893e-41
4.4807e-41 4.6878e-41 -5.6968e-41 3.4588e-41 5.126e-42 -6.3475e-41 -5.4966e-41 7.6978e-41
-9.029e-42 -3.6046e-41 -7.5474e-41 -3.4967e-41 6.3458e-41 -1.8632e-41 -3.6487e-41 -4.9836e-41
7.842e-42 1.9961e-41 -4.0977e-41 -5.4099e-41 -4.5615e-41 3.4538e-41 -2.122e-42 6.6543e-41
7.5358e-41 4.0387e-41 -5.7159e-41 -1.528e-41 -3.559e-41 -6.1396e-41 5.3483e-41 3.1839e-41
-5.4889e-41 1.96e-42 2.6372e-41 2.5572e-41 6.3089e-41 -1.1601e-41 -4.557e-41 -1.4202e-41
5.0279e-41 4.496e-41 1.3413e-41 -6.3857e-41 -1.456e-41 -2.9468e-41 3.7597e-41 6.5596e-41
-9.464e-42 5.6992e-41 -3.5e-42 -5.2449e-41 9.522e-42 3.1112e-41 -2.621e-41 -6.04e-41
7.0774e-41 -5.6898e-41 -1.4034e-41 3.1172e-41 -4.3907e-41 -1.784e-42 4.6461e-41 4.1907e-41
6.5697e-41 -4.6752e-41 3.641e-41 4.4515e-41 -7.5063e-41 -2.2697e-41 -1.4173e-41 7.464e-41
6.0713e-41 -4.1414e-41 -6.8348e-41 -3.6149e-41 -2.6919e-41 5.5787e-41 -6.4618e-41 4.3146e-41
-1.9213e-41 7.4905e-41 -6.7793e-41 2.6207e-41 -2.727e-41 9.41e-42 4.5614e-41 -7.2524e-41
1.1596e-41 2.5359e-41 2.4688e-41 4.3865e-41 -7.4228e-41 -2.4321e-41 3.063e-41 2.172e-42
-4.2455e-41 -4.3697e-41 1.8143e-41 -4.8891e-41 7.4758e-41 -1.058e-41 1.1212e-41 6.614e-42
-1.1346e-41 5.986e-42 2.4446e-41 -7.5307e-41 -6.9394e-41 4.52e-42 4.46e-43 1.3225e-41
3.9319e-41 -2.4859e-41 -7.5474e-41 -7.4569e-41 7.146e-41 4.5985e-41 6.6894e-41 6.6734e-41
-2.3829e-41 -5.6056e-41 5.1897e-41 -8.716e-42 2.9968e-41 -2.5897e-41 -4.048e-42 -7.5428e-41
00000000: eb09 0000 4ed3 0080 1783 0000 1b6d 0000
00000010: db58 0000 5a54 0080 44c9 0080 510e 0080
00000020: a651 0000 2459 0000 16bf 0080 152d 0000
00000030: 8fc9 0080 167b 0080 10b1 0080 6b02 0080
00000040: df25 0000 373a 0000 8466 0000 8914 0000
00000050: bd6f 0080 0a83 0080 5093 0080 c36d 0000
00000060: c23d 0080 d97f 0000 f680 0000 2f7b 0080
00000070: e41d 0000 a286 0000 fd02 0080 debe 0000
00000080: 9e64 0000 16a6 0080 2bcb 0080 418b 0000
00000090: cf6b 0080 0635 0080 9044 0000 2141 0080
000000a0: d490 0000 9038 0000 14c9 0000 c5ac 0000
000000b0: bd6a 0000 d4ab 0080 ec29 0000 63b9 0080
000000c0: b243 0000 5020 0080 4e06 0000 a71b 0000
000000d0: 7f4c 0080 6f42 0080 4f93 0000 2d50 0000
000000e0: 4b4c 0080 de71 0080 110a 0080 63c5 0000
000000f0: abb2 0080 f47f 0080 1307 0080 1cd1 0080
00000100: 7f5d 0000 6782 0080 6fb3 0000 55d1 0080
00000110: 9963 0000 bc9d 0000 06a3 0000 38ae 0000
00000120: 9e99 0080 ea33 0000 57bb 0080 c847 0080
00000130: 9da8 0080 e501 0000 6606 0000 a75c 0000
00000140: e99c 0080 259f 0080 f603 0080 876f 0080
00000150: a440 0000 7666 0000 9f73 0000 273e 0000
00000160: 142c 0080 fa62 0000 2d41 0000 f945 0000
00000170: 6957 0080 14c5 0000 85ab 0080 0c43 0080
00000180: 5565 0080 3fc4 0000 b75f 0080 d4a5 0000
00000190: dacc 0000 1b1b 0000 de84 0000 5600 0080
000001a0: fe12 0000 7e3e 0080 710a 0080 3377 0080
000001b0: d39f 0000 6abc 0080 4c79 0080 160a 0000
000001c0: 4a06 0000 e85b 0000 c95b 0000 f4b3 0080
000001d0: aec0 0000 b17b 0080 11c7 0080 1a04 0000
000001e0: 3ccc 0080 246d 0000 8385 0080 2126 0000
000001f0: deb7 0080 36ad 0000 5721 0080 f123 0000
00000200: e77c 0000 ad82 0000 ce9e 0080 6b60 0000
00000210: 4a0e 0000 f1b0 0080 3999 0080 95d6 0000
00000220: 2b19 0080 7b64 0080 64d2 0080 7961 0080
00000230: e5b0 0000 f033 0080 b665 0080 ec8a 0080
00000240: dc15 0000 a537 0000 3a72 0080 ce96 0080
00000250: 287f 0080 4760 0000 ea05 0080 7fb9 0000
00000260: 11d2 0000 9570 0000 569f 0080 982a 0080
00000270: 3663 0080 26ab 0080 1795 0000 c158 0000
00000280: 0299 0080 7705 0000 8449 0000 4947 0000
00000290: deaf 0000 5720 0080 087f 0080 9727 0080
000002a0: 288c 0000 557d 0000 6425 0000 02b2 0080
000002b0: 9628 0080 2552 0080 ce68 0000 dbb6 0000
000002c0: 621a 0080 df9e 0000 c209 0080 3592 0080
000002d0: 8b1a 0000 ba56 0000 1049 0080 5fa8 0080
000002e0: 4ac5 0000 9c9e 0080 1f27 0080 e556 0000
000002f0: 657a 0080 f904 0080 8481 0000 d274 0000
00000300: 23b7 0000 5382 0080 7f65 0000 177c 0000
00000310: 3fd1 0080 453f 0080 8227 0080 11d0 0000
00000320: 3ea9 0000 7273 0080 87be 0080 c564 0080
00000330: 0a4b 0080 839b 0000 21b4 0080 4678 0000
00000340: 8f35 0080 ced0 0000 fbbc 0080 0e49 0000
00000350: 054c 0080 3b1a 0000 277f 0000 2bca 0080
00000360: 5320 0000 b146 0000 d244 0000 477a 0000
00000370: ebce 0080 cc43 0080 6255 0000 0e06 0000
00000380: 5976 0080 cf79 0080 9332 0000 4a88 0080
00000390: 65d0 0000 7e1d 0080 411f 0000 7012 0000
000003a0: a11f 0080 b010 0000 2544 0000 edd1 0080
000003b0: 71c1 0080 9a0c 0000 3e01 0000 de24 0000
000003c0: 9b6d 0000 4c45 0080 64d2 0080 decf 0080
000003d0: 34c7 0000 3080 0000 79ba 0000 07ba 0000
000003e0: 6d42 0080 439c 0080 ab90 0000 4c18 0080
000003f0: 8a53 0000 3148 0080 490b 0080 43d2 0080

hidden.0.linear.bias f4 [60]
2.6242e-41 -4.707e-42 -6.5954e-41 4.9732e-41 -6.6346e-41 6.5815e-41 -3.96e-41 -5.7344e-41
-1.5124e-41 -1.8272e-41 1.2598e-41 4.801e-42 -3.8309e-41 -2.379e-41 -9.002e-42 4.6928e-41
-3.2299e-41 -2.3825e-41 -3.0809e-41 -4.1986e-41 -3.8342e-41 -1.3824e-41 -1.0326e-41 1.3237e-41
-3.2503e-41 3.1249e-41 -1.0707e-41 -5.15e-41 -2.108e-41 2.525e-41 2.7964e-41 -5.031e-41
9.64e-42 4.0573e-41 -5.4611e-41 -5.3436e-41 -6.6946e-41 1.529e-41 2.381e-42 -4.5821e-41
3.9033e-41 -1.5931e-41 -1.784e-42 -7.5203e-41 -4.3451e-41 -9.602e-42 -4.755e-42 2.255e-41
-3.4961e-41 1.9178e-41 7.245e-42 6.1143e-41 3.669e-42 -1.4743e-41 -3.864e-41 -3.7164e-41
-5.822e-42 1.31e-41 -2.9083e-41 -7.2439e-41
00000000: 2749 0000 1f0d 0080 dab7 0080 a28a 0000
00000010: f2b8 0080 77b7 0000 646e 0080 da9f 0080
00000020: 292a 0080 ef32 0080 1e23 0000 620d 0000
00000030: ca6a 0080 5142 0080 1819 0080 d182 0000
00000040: 095a 0080 6a42 0080 e255 0080 0a75 0080
00000050: e26a 0080 8926 0080 c91c 0080 e624 0000
00000060: 9b5a 0080 1c57 0000 d91d 0080 908f 0080
00000070: c33a 0080 6346 0000 f44d 0000 3e8c 0080
00000080: df1a 0000 1a71 0000 3c98 0080 f594 0080
00000090: 9eba 0080 9f2a 0000 a306 0000 bb7f 0080
000000a0: cf6c 0000 692c 0080 f904 0080 a3d1 0080
000000b0: 2079 0080 c41a 0080 410d 0080 dc3e 0000
000000c0: 7561 0080 7635 0000 3214 0000 71aa 0000
000000d0: 3a0a 0000 1929 0080 b66b 0080 9967 0080
000000e0: 3b10 0080 8424 0000 1251 0080 eec9 0080

hidden.0.bn.weight f4 [60]
-5.5676e-41 -6.0333e-41 1.7834e-41 -6.0585e-41 -7.434e-42 -2.207e-41 3.2704e-41 -4.553e-41
-6.78e-42 3.3215e-41 3.979e-41 3.632e-42 -3.6047e-41 2.479e-42 5.3814e-41 6.64e-43
-4.5413e-41 -6.3001e-41 -4.889e-42 -7.2278e-41 5.1138e-41 -1.9997e-41 -4.2989e-41 9.184e-42
-2.3958e-41 1.2146e-41 -3.947e-42 -4.519e-42 7.5098e-41 -5.6311e-41 3.6e-41 -5.328e-42
3.4738e-41 2.595e-41 7.4221e-41 -3.0195e-41 7.6805e-41 -2.5456e-41 6.679e-41 -1.2326e-41
4.8668e-41 -2.7939e-41 -5.4142e-41 2.6295e-41 -6.391e-42 -6.7607e-41 -4.5677e-41 -1.7537e-41
5.4901e-41 3.5292e-41 -6.9813e-41 -5.1255e-41 7.0007e-41 1.8861e-41 -3.3767e-41 7.704e-42
-6.492e-42 1.5007e-41 4.097e-42 5.3027e-41
00000000: 349b 0080 2fa8 0080 b731 0000 e3a8 0080
00000010: b914 0080 863d 0080 2a5b 0000 eb7e 0080
00000020: e612 0080 975c 0000 eb6e 0000 200a 0000
00000030: 7c64 0080 e906 0000 0396 0000 da01 0000
00000040: 987e 0080 9faf 0080 a10d 0080 7bc9 0080
00000050: 8d8e 0000 be37 0080 d677 0080 9a19 0000
00000060: c942 0080 dc21 0000 010b 0080 990c 0080
00000070: 58d1 0000 f99c 0080 5a64 0000 da0e 0080
00000080: d660 0000 5748 0000 e6ce 0000 2c54 0080
00000090: 1ad6 0000 f646 0080 2fba 0000 5c22 0080
000000a0: ab87 0000 e24d 0080 ed96 0080 4d49 0000
000000b0: d111 0080 76bc 0080 547f 0080 e330 0080
000000c0: 0b99 0000 6162 0000 9cc2 0080 e18e 0080
000000d0: 27c3 0000 9434 0000 215e 0080 7a15 0000
000000e0: 1912 0080 d529 0000 6c0b 0000 d193 0000

hidden.0.bn.bias f4 [60]
3.9016e-41 -4.1051e-41 3.3571e-41 -6.153e-42 -1.471e-41 -2.1102e-41 6.6681e-41 3.8429e-41
1.865e-42 -3.4548e-41 5.1349e-41 -5.2458e-41 4.43e-41 -3.9116e-41 -1.8434e-41 -6.33e-41
-2.44e-42 7.0178e-41 -3.0609e-41 -6.0309e-41 -3.5835e-41 2.1541e-41 6.108e-42 2.5497e-41
-4.919e-42 -5.8904e-41 -5.4094e-41 2.996e-42 6.1483e-41 -1.3507e-41 1.4537e-41 2.3521e-41
6.113e-41 1.1657e-41 1.8975e-41 3.2125e-41 -2.5966e-41 -4.7699e-41 -3.527e-41 -2.5348e-41
-2.6319e-41 6.6689e-41 -9.434e-42 9.422e-42 1.4774e-41 -3.1738e-41 1.507e-41 -4.5813e-41
5.0937e-41 7.5156e-41 7.4883e-41 -3.8517e-41 -6.6424e-41 -1.3604e-41 -6.7237e-41 -4.6997e-41
5.7518e-41 4.3323e-41 -4.4367e-41 8.817e-42
00000000: c36c 0000 6f72 0080 955d 0000 2711 0080
00000010: 0129 0080 d33a 0080 e1b9 0000 206b 0000
00000020: 3305 0000 4e60 0080 248f 0000 3b92 0080
00000030: 7e7b 0000 0a6d 0080 6333 0080 74b0 0080
00000040: cd06 0080 a1c3 0000 5355 0080 1ea8 0080
00000050: e563 0080 0c3c 0000 0711 0000 1347 0000
00000060: b60d 0080 33a4 0080 cb96 0080 5a08 0000
00000070: 64ab 0000 a725 0080 8628 0000 9141 0000
00000080: 68aa 0000 7f20 0000 e534 0000 8d59 0000
00000090: 6248 0080 f784 0080 5262 0080 a946 0080
000000a0: 5e49 0080 e7b9 0000 4c1a 0080 441a 0000
000000b0: 2f29 0000 7958 0080 022a 0000 b57f 0080
000000c0: fe8d 0000 81d1 0000 bed0 0000 5f6b 0080
000000d0: 2ab9 0080 ec25 0080 6ebb 0080 0283 0080
000000e0: 56a0 0000 c478 0000 ad7b 0080 9418 0000

hidden.0.bn.running_mean f4 [60]
6.368e-41 -2.2484e-41 2.5823e-41 3.1816e-41 5.4209e-41 3.947e-42 -1.79345e-40 -6.034e-41
9.2982e-41 -4.0223e-41 1.8255e-41 -5.808e-41 3.8597e-41 -2.484e-41 2.6744e-41 3.1199e-41
6.009e-42 -1.2432e-41 -1.4658e-41 -7.1283e-41 -8.3447e-41 -2.26e-41 -5.2012e-41 -3.5607e-41
3.4515e-41 -7.318e-42 -1.457e-41 -1.8546e-41 5.0307e-41 3.87e-42 2.2536e-41 -2.6194e-41
-7.599e-42 2.9852e-41 -3.0052e-41 -5.1302e-41 -1.24927e-40 -1.28478e-40 9.048e-42 -7.1859e-41
-4.96e-41 1.5664e-41 3.3435e-41 -1.22e-42 5.0748e-41 -8.646e-41 9.4108e-41 -3.1347e-41
1.8399e-41 1.35515e-40 -3.4779e-41 -3.306e-42 2.0055e-41 2.9649e-41 1.0441e-41 -5.4523e-41
6.4945e-41 -4.4085e-41 -2.5836e-41 -7.09e-41
00000000: 84b1 0000 ad3e 0080 fc47 0000 b158 0000
00000010: 1d97 0000 010b 0000 f1f3 0180 34a8 0080
00000020: 3203 0100 2070 0080 e332 0000 e7a1 0080
00000030: 986b 0000 3e45 0080 8d4a 0000 f856 0000
00000040: c010 0000 a822 0080 dc28 0080 b5c6 0080
00000050: 9ee8 0080 003f 0080 fd90 0080 4263 0080
00000060: 3760 0000 6614 0080 9d28 0080 b333 0080
00000070: 3c8c 0000 ca0a 0000 d23e 0000 0549 0080
00000080: 2f15 0080 3753 0000 c653 0080 028f 0080
00000090: 3f5c 0180 2566 0180 3919 0000 50c8 0080
000000a0: 448a 0080 aa2b 0000 345d 0000 6703 0080
000000b0: 778d 0000 04f1 0080 5606 0100 6257 0080
000000c0: 4a33 0000 c379 0100 f360 0080 3709 0080
000000d0: e837 0000 a652 0000 1b1d 0000 fd97 0080
000000e0: 0ab5 0000 e47a 0080 0548 0080 a4c5 0080

hidden.0.bn.running_var f4 [60]
6e-45 6e-45 6e-45 6e-45 6e-45 6e-45 6e-45 6e-45
6e-45 6e-45 6e-45 6e-45 6e-45 6e-45 6e-45 6e-45
6e-45 6e-45 6e-45 6e-45 6e-45 6e-45 6e-45 6e-45
6e-45 6e-45 6e-45 6e-45 6e-45 6e-45 6e-45 6e-45
6e-45 6e-45 6e-45 6e-45 6e-45 6e-45 6e-45 6e-45
6e-45 6e-45 6e-45 6e-45 6e-45 6e-45 6e-45 6e-45
6e-45 6e-45 6e-45 6e-45 6e-45 6e-45 6e-45 6e-45
6e-45 6e-45 6e-45 6e-45
00000000: 0400 0000 0400 0000 0400 0000 0400 0000
00000010: 0400 0000 0400 0000 0400 0000 0400 0000
00000020: 0400 0000 0400 0000 0400 0000 0400 0000
00000030: 0400 0000 0400 0000 0400 0000 0400 0000
00000040: 0400 0000 0400 0000 0400 0000 0400 0000
00000050: 0400 0000 0400 0000 0400 0000 0400 0000
00000060: 0400 0000 0400 0000 0400 0000 0400 0000
00000070: 0400 0000 0400 0000 0400 0000 0400 0000
00000080: 0400 0000 0400 0000 0400 0000 0400 0000
00000090: 0400 0000 0400 0000 0400 0000 0400 0000
000000a0: 0400 0000 0400 0000 0400 0000 0400 0000
000000b0: 0400 0000 0400 0000 0400 0000 0400 0000
000000c0: 0400 0000 0400 0000 0400 0000 0400 0000
000000d0: 0400 0000 0400 0000 0400 0000 0400 0000
000000e0: 0400 0000 0400 0000 0400 0000 0400 0000

hidden.1.linear.weight f4 [40, 60]
2.4912e-41 -6.6269e-41 7.964e-42 4.12e-41 -6.2743e-41 1.928e-42 6.831e-41 -2.1441e-41
2.933e-41 -3.2072e-41 7.4955e-41 -2.0546e-41 -6.8505e-41 -4.3449e-41 -2.5466e-41 -4.763e-42
-5.9973e-41 -4.979e-41 2.1211e-41 4.9155e-41 2.115e-41 -6.464e-41 2.015e-41 1.7928e-41
1.89e-42 -4.4871e-41 2.4292e-41 3.5296e-41 2.9754e-41 -7.3019e-41 -2.4475e-41 5.7704e-41
-4.1948e-41 7.3638e-41 6.5347e-41 -1.3843e-41 -4.2133e-41 5.437e-42 -5.664e-41 1.3283e-41
4.1546e-41 -7.0202e-41 3.8016e-41 -3.3413e-41 -6.4615e-41 4.4392e-41 7.1438e-41 -6.1765e-41
1.768e-42 -6.2759e-41 -6.237e-42 2.0921e-41 5.4058e-41 7.1266e-41 -2.5103e-41 3.092e-41
1.0029e-41 -2.6405e-41 2.9157e-41 5.6582e-41 -1.1812e-41 1.3658e-41 -6.2085e-41 3.6844e-41
1.8859e-41 -4.3659e-41 1.0122e-41 5.1799e-41 -4.3877e-41 5.681e-42 1.4646e-41 3.2674e-41
7.5432e-41 1.9859e-41 6.0559e-41 -4.1093e-41 -5.0762e-41 -6.3227e-41 4.0876e-41 3.1763e-41
7.6246e-41 1.3224e-41 -5.269e-42 -2.9338e-41 -2.501e-42 -1.8908e-41 -1.247e-41 -4.406e-42
6.892e-42 -2.7188e-41 3.7464e-41 2.9084e-41 -3.2642e-41 6.689e-41 -3.2343e-41 -7.6177e-41
7.0662e-41 1.4382e-41 7.89e-43 -6.0117e-41 -7.3295e-41 7.0707e-41 2.0474e-41 -4.9288e-41
-4.3697e-41 7.5285e-41 -2.4916e-41 1.4515e-41 5.0172e-41 2.215e-42 -2.043e-41 2.1686e-41
3.7217e-41 3.5168e-41 2.9864e-41 5.1402e-41 5.2233e-41 -6.2604e-41 7.2369e-41 6.1752e-41
6.1387e-41 -1.9138e-41 4.3671e-41 5.9903e-41 -2.0701e-41 4.207e-41 -4.6963e-41 8.25e-42
-4.9547e-41 -4.2602e-41 4.996e-42 -1.8882e-41 5.0871e-41 7.5014e-41 -3.1271e-41 6.915e-41
-4.8725e-41 3.5705e-41 -5.0412e-41 -5.2536e-41 -2.6367e-41 -3.6403e-41 -4.6998e-41 -1.8378e-41
1.4445e-41 -4.4247e-41 7.0732e-41 1.1436e-41 2.0784e-41 -3.7894e-41 3.908e-41 -4.7235e-41
5.4775e-41 6.048e-42 -4.1743e-41 7.819e-42 -6.252e-41 -6.4598e-41 -7.982e-42 -3.8303e-41
5.1223e-41 -3.2237e-41 -3.6791e-41 -9.05e-42 -2.5532e-41 -1.8288e-41 -3.2404e-41 8.91e-42
-4.1749e-41 5.5313e-41 4.7992e-41 4.3865e-41 8.45e-42 5.583e-42 -3.6027e-41 -5.3305e-41
3.65e-42 -6.6894e-41 -2.2393e-41 4.3238e-41 -1.966e-41 -2.9974e-41 -3.18e-41 -2.4165e-41
3.802e-41 -4.2049e-41 -2.6709e-41 -3.6903e-41 4.4404e-41 -6.142e-41 4.7931e-41 -1.9544e-41
-3.3763e-41 -5.4969e-41 -2.2746e-41 7.3099e-41 -3.0169e-41 -1.8396e-41 6.2454e-41 4.3468e-41
-1.7944e-41 -3.3229e-41 1.0733e-41 -4.3295e-41 2.4038e-41 -3.7731e-41 -2.9283e-41 2.5204e-41
-1.5409e-41 -3.762e-42 -1.0634e-41 -1.578e-41 -9.44e-43 5.3485e-41 3.156e-41 -3.68e-42
-1.8081e-41 3.1634e-41 -5.9125e-41 4.0964e-41 6.2649e-41 7.3714e-41 -1.8524e-41 5.2767e-41
6.1255e-41 5.5504e-41 -4.0788e-41 -6.2771e-41 3.5063e-41 -7.5471e-41 7.5467e-41 7.2768e-41
-4.2311e-41 -5.6453e-41 -4.3827e-41 -6.777e-41 6.2582e-41 -5.9872e-41 3.5918e-41 -7.892e-42
-4.5862e-41 5.2267e-41 -1.841e-41 -1.6541e-41 -1.3549e-41 5.1851e-41 -3.4102e-41 -3.3603e-41
3.3403e-41 2.5491e-41 2.9538e-41 3.7146e-41 3.7775e-41 -2.318e-41 -6.517e-42 6.1437e-41
00000000: 7245 0000 bbb8 0080 3316 0000 d972 0000
00000010: e7ae 0080 6005 0000 6cbe 0000 c53b 0080
00000020: c351 0000 6759 0080 f2d0 0000 4639 0080
00000030: f7be 0080 1e79 0080 fd46 0080 470d 0080
00000040: 2ea7 0080 cb8a 0080 213b 0000 0689 0000
00000050: f53a 0000 31b4 0080 2c38 0000 fa31 0000
00000060: 4505 0000 157d 0080 b743 0000 6462 0000
00000070: f152 0000 8ccb 0080 3a44 0080 dba0 0000
00000080: ef74 0080 46cd 0000 29b6 0000 9726 0080
00000090: 7375 0080 280f 0000 e49d 0080 0725 0000
000000a0: d073 0000 b2c3 0080 f969 0000 245d 0080
000000b0: 1fb4 0080 bf7b 0000 24c7 0000 2dac 0080
000000c0: ee04 0000 f2ae 0080 6311 0080 523a 0000
000000d0: b196 0000 a9c6 0000 fa45 0080 3156 0000
000000e0: f51b 0000 9b49 0080 4751 0000 ba9d 0000
000000f0: ed20 0080 1326 0000 11ad 0080 b566 0000
00000100: 9234 0000 b479 0080 371c 0000 6590 0000
00000110: 507a 0080 d60f 0000 d428 0000 155b 0000
00000120: 46d2 0000 5c37 0000 d0a8 0000 8d72 0080
00000130: 818d 0080 40b0 0080 f271 0000 8b58 0000
00000140: 8bd4 0000 dd24 0000 b00e 0080 c851 0080
00000150: f906 0080 b534 0080 c322 0080 480c 0080
00000160: 3613 0000 ca4b 0080 6f68 0000 1351 0000
00000170: fe5a 0080 76ba 0000 295a 0080 5ad4 0080
00000180: fac4 0000 1728 0000 3302 0000 95a7 0080
00000190: 51cc 0080 1ac5 0000 1339 0000 6589 0080
000001a0: cf79 0080 ddd1 0000 7545 0080 7628 0000
000001b0: dc8b 0000 2d06 0000 f338 0080 743c 0000
000001c0: bf67 0000 0962 0000 4053 0000 4a8f 0000
000001d0: 9b91 0000 84ae 0080 bcc9 0000 24ac 0000
000001e0: 1fab 0000 5935 0080 bd79 0000 fca6 0000
000001f0: b539 0080 4675 0000 ea82 0080 ff16 0000
00000200: 1e8a 0080 c276 0080 ed0d 0000 a334 0080
00000210: cf8d 0000 1cd1 0000 2c57 0080 c3c0 0000
00000220: d387 0080 8863 0000 878c 0080 7392 0080
00000230: 8049 0080 7a65 0080 0383 0080 3b33 0080
00000240: 4428 0000 587b 0080 2cc5 0000 e11f 0000
00000250: f039 0000 a269 0080 f06c 0000 ac83 0080
00000260: b198 0000 dc10 0000 5d74 0080 cc15 0000
00000270: 48ae 0080 13b4 0080 4016 0080 c66a 0080
00000280: ca8e 0000 dd59 0080 8f66 0080 3a19 0080
00000290: 2c47 0080 fb32 0080 545a 0080 d618 0000
000002a0: 6174 0080 319a 0000 c885 0000 477a 0000
000002b0: 8e17 0000 900f 0000 6e64 0080 9894 0080
000002c0: 2d0a 0000 79ba 0080 6c3e 0080 8878 0000
000002d0: ce36 0080 8e53 0080 a558 0080 5d43 0080
000002e0: fc69 0000 3775 0080 744a 0080 df66 0080
000002f0: c87b 0000 37ab 0080 9d85 0000 7b36 0080
00000300: 1e5e 0080 3b99 0080 683f 0080 c5cb 0000
00000310: 1954 0080 4833 0080 19ae 0000 2c79 0000
00000320: 0532 0080 a15c 0080 eb1d 0000 b078 0080
00000330: 0243 0000 2e69 0080 a151 0080 4246 0000
00000340: f42a 0080 7d0a 0080 a51d 0080 fd2b 0080
00000350: a202 0080 1895 0000 fa57 0000 420a 0080
00000360: 6732 0080 2f58 0000 d1a4 0080 3172 0000
00000370: a4ae 0000 7ccd 0000 a333 0080 1893 0000
00000380: c1aa 0000 b99a 0000 b371 0080 fbae 0080
00000390: be61 0000 62d2 0080 5fd2 0000 d9ca 0000
000003a0: f275 0080 5e9d 0080 2c7a 0080 eabc 0080
000003b0: 74ae 0000 e6a6 0080 2064 0000 0016 0080
000003c0: d87f 0080 b391 0000 5233 0080 1c2e 0080
000003d0: c525 0080 8a90 0000 105f 0080 ac5d 0080
000003e0: 1d5d 0000 0f47 0000 5752 0000 8c67 0000
000003f0: 4d69 0000 9e40 0080 2b12 0080 43ab 0000

hidden.1.linear.bias f4 [40]
-7.4e-43 -2.5935e-41 -1.7439e-41 6.5261e-41 -1.9652e-41 -6.5013e-41 -4.686e-42 3.122e-42
-1.2867e-41 3.3118e-41 -3.6004e-41 2.7021e-41 -1.0972e-41 2.5436e-41 -1.0364e-41 1.5501e-41
-3.0007e-41 7.895e-42 6.2541e-41 6.8591e-41 -2.035e-42 1.6852e-41 -3.79e-42 -2.5934e-41
3.4304e-41 -8.367e-42 -3.107e-41 -2.7135e-41 1.95e-41 -4.5346e-41 -6.8826e-41 7.0089e-41
3.0019e-41 -1.5706e-41 -4.4191e-41 5.1194e-41 1.1415e-41 -4.9329e-41 7.0061e-41 3.8536e-41
00000000: 1002 0080 4c48 0080 9d30 0080 ecb5 0000
00000010: c836 0080 3bb5 0080 100d 0080 b408 0000
00000020: de23 0080 525c 0000 5d64 0080 534b 0000
00000030: 961e 0080 e846 0000 e41c 0080 362b 0000
00000040: a653 0080 0216 0000 57ae 0000 34bf 0000
00000050: ac05 0080 fa2e 0000 910a 0080 4b48 0080
00000060: a05f 0000 5317 0080 9c56 0080 a44b 0080
00000070: 5c36 0000 687e 0080 dcbf 0080 61c3 0000
00000080: ae53 0000 c82b 0080 307b 0080 b58e 0000
00000090: d21f 0000 8289 0080 4dc3 0000 6c6b 0000

hidden.1.bn.weight f4 [40]
-6.4461e-41 2.7104e-41 5.1624e-41 -5.7613e-41 -1.814e-41 3.3471e-41 7.228e-42 -4.6467e-41
-1.8515e-41 -7.5398e-41 -7.0314e-41 2.761e-41 3.774e-42 -1.0493e-41 2.3664e-41 -1.3507e-41
6.6807e-41 6.588e-42 -1.5955e-41 6.7156e-41 -6.7876e-41 -4.8519e-41 -7.3477e-41 5.5294e-41
-4.2674e-41 -1.6974e-41 -5.3834e-41 5.5742e-41 5.6314e-41 5.0839e-41 5.7994e-41 -5.5049e-41
7.487e-41 -1.6605e-41 -4.7142e-41 -3.878e-41 -1.7417e-41 2.48e-42 -4.4168e-41 -2.7314e-41
00000000: b1b3 0080 8e4b 0000 e88f 0000 9aa0 0080
00000010: 9132 0080 4e5d 0000 2614 0000 8881 0080
00000020: 9d33 0080 2ed2 0080 02c4 0080 f74c 0000
00000030: 850a 0000 401d 0080 f741 0000 a725 0080
00000040: 3bba 0000 5d12 0000 7a2c 0080 34bb 0000
00000050: 36bd 0080 4087 0080 d3cc 0080 239a 0000
00000060: f576 0080 512f 0080 1196 0080 639b 0000
00000070: fb9c 0000 b88d 0000 aaa1 0000 7499 0080
00000080: b5d0 0000 4a2e 0080 6a83 0080 1a6c 0080
00000090: 8d30 0080 ea06 0000 1f7b 0080 244c 0080

hidden.1.bn.bias f4 [40]
-4.9096e-41 -5.197e-42 -1.3284e-41 -1.6964e-41 -7.0516e-41 1.2802e-41 5.638e-41 2.5548e-41
-3.1906e-41 1.1081e-41 -2.4555e-41 5.5442e-41 4.2562e-41 -3.0324e-41 -4.481e-41 1.0442e-41
-7.428e-42 7.3822e-41 -4.3582e-41 -4.2797e-41 1.0954e-41 -6.591e-41 2.9552e-41 -3.7946e-41
-7.3945e-41 -4.641e-41 -1.9863e-41 2.2613e-41 1.9852e-41 4.9655e-41 7.5295e-41 1.806e-42
-1.2664e-41 -3.6764e-41 -7.2973e-41 5.1258e-41 -1.9027e-41 -4.1669e-41 7.4038e-41 1.97e-41
00000000: dc88 0080 7d0e 0080 0825 0080 4a2f 0080
00000010: 92c4 0080 b023 0000 2a9d 0000 3847 0000
00000020: f158 0080 e41e 0000 7344 0080 8d9a 0000
00000030: a576 0000 8854 0080 e97c 0080 1c1d 0000
00000040: b514 0080 c9cd 0000 7d79 0080 4d77 0080
00000050: 891e 0000 bbb7 0080 6152 0000 c769 0080
00000060: 21ce 0080 5f81 0080 5f37 0080 093f 0000
00000070: 5737 0000 6b8a 0000 e4d1 0000 0905 0000
00000080: 4d23 0080 7c66 0080 6bcb 0080 e38e 0000
00000090: 0a35 0080 2874 0080 63ce 0000 ea36 0000

hidden.1.bn.running_mean f4 [40]
-3.5083e-41 1.5927e-41 2.2788e-41 4.4749e-41 2.0643e-41 -4.4507e-41 3.183e-41 3.5152e-41
-1.287e-41 -1.1401e-41 -4.6843e-41 -1.6214e-41 -4.0219e-41 4.4867e-41 2.8095e-41 -2.4725e-41
-4.5366e-41 3.7247e-41 4.8533e-41 1.8675e-41 3.2397e-41 4.3126e-41 3.0644e-41 1.5927e-41
-1.021e-41 -3.7723e-41 -4.643e-41 1.6102e-41 4.2601e-41 -5.0958e-41 -4.1372e-41 2.0962e-41
-1.3267e-41 -4.1977e-41 2.508e-42 3.55e-42 4.0667e-41 -1.686e-42 2.1523e-41 -7.131e-42
00000000: cc61 0080 662c 0000 863f 0000 be7c 0000
00000010: 8b39 0000 117c 0080 bb58 0000 fd61 0000
00000020: e023 0080 c81f 0080 9482 0080 332d 0080
00000030: 1d70 0080 127d 0000 514e 0000 ec44 0080
00000040: 767e 0080 d467 0000 4a87 0000 0f34 0000
00000050: 4f5a 0000 3878 0000 6c55 0000 662c 0000
00000060: 761c 0080 2869 0080 6e81 0080 e32c 0000
00000070: c176 0000 0d8e 0080 5473 0080 6f3a 0000
00000080: fc24 0080 0475 0080 fe06 0000 e509 0000
00000090: 5d71 0000 b304 0080 ff3b 0000 e113 0080

hidden.1.bn.running_var f4 [40]
6e-45 6e-45 6e-45 6e-45 6e-45 6e-45 6e-45 6e-45
6e-45 6e-45 6e-45 6e-45 6e-45 6e-45 6e-45 6e-45
6e-45 6e-45 6e-45 6e-45 6e-45 6e-45 6e-45 6e-45
6e-45 6e-45 6e-45 6e-45 6e-45 6e-45 6e-45 6e-45
6e-45 6e-45 6e-45 6e-45 6e-45 6e-45 6e-45 6e-45
00000000: 0400 0000 0400 0000 0400 0000 0400 0000
00000010: 0400 0000 0400 0000 0400 0000 0400 0000
00000020: 0400 0000 0400 0000 0400 0000 0400 0000
00000030: 0400 0000 0400 0000 0400 0000 0400 0000
00000040: 0400 0000 0400 0000 0400 0000 0400 0000
00000050: 0400 0000 0400 0000 0400 0000 0400 0000
00000060: 0400 0000 0400 0000 0400 0000 0400 0000
00000070: 0400 0000 0400 0000 0400 0000 0400 0000
00000080: 0400 0000 0400 0000 0400 0000 0400 0000
00000090: 0400 0000 0400 0000 0400 0000 0400 0000

hidden.2.linear.weight f4 [30, 40]
6.2914e-41 -5.9966e-41 -4.4344e-41 3.4883e-41 3.1203e-41 -3.6732e-41 5.939e-42 7.675e-42
-3.9405e-41 -7.0359e-41 2.1321e-41 -4.2042e-41 2.5698e-41 3.5223e-41 7.602e-42 -7.0861e-41
-1.2438e-41 -6.1811e-41 2.0693e-41 -4.5793e-41 -2.0515e-41 -8.045e-42 7.3386e-41 3.2266e-41
-2.5763e-41 -4.074e-42 -1.9869e-41 -6.0962e-41 -5.5281e-41 2.4991e-41 -4.3828e-41 -3.3581e-41
2.9321e-41 4.6376e-41 -3.6989e-41 -1.351e-42 7.1072e-41 2.9454e-41 -1.1428e-41 3.8529e-41
-3.8932e-41 -1.4794e-41 4.1094e-41 -1.0857e-41 -3.1117e-41 3.0606e-41 -2.7739e-41 5.5774e-41
2.6365e-41 3.8449e-41 -3.2725e-41 2.644e-42 4.1647e-41 1.4903e-41 -6.7964e-41 7.166e-42
5.1366e-41 -2.8664e-41 -2.7824e-41 -3.6986e-41 -7.566e-41 -2.3955e-41 6.1656e-41 -6.6996e-41
-3.0087e-41 6.1726e-41 4.3184e-41 1.1643e-41 -7.5295e-41 7.3107e-41 5.2117e-41 -7.0405e-41
4.85e-41 -1.3863e-41 -4.617e-42 -3.8342e-41 -5.9537e-41 3.835e-41 -3.3446e-41 -7.6378e-41
1.285e-42 6.8182e-41 5.0927e-41 -8.35e-42 1.4405e-41 -3.229e-41 3.8499e-41 -1.2739e-41
4.471e-41 -3.311e-41 3.999e-41 5.635e-41 7.3326e-41 -5.147e-42 2.5107e-41 3.6689e-41
-7.1839e-41 -1.996e-41 1.4268e-41 -3.25e-43 4.002e-42 -5.5477e-41 5.3817e-41 -1.4264e-41
-9.56e-42 5.6603e-41 -3.5719e-41 1.04e-42 2.577e-42 6.4939e-41 -4.5719e-41 5.29e-42
2.5379e-41 2.8593e-41 -5.2267e-41 -1.9164e-41 -3.3258e-41 2.8252e-41 6.6175e-41 3.7618e-41
3.8145e-41 -9.628e-42 -5.5494e-41 -3.4978e-41 -8.872e-42 4.3096e-41 2.4373e-41 1.7606e-41
-6.8486e-41 -5.1374e-41 -3.468e-41 5.5765e-41 -3.4115e-41 6.7177e-41 3.4208e-41 1.0206e-41
7.599e-42 -1.7691e-41 -2.8895e-41 -3.6338e-41 5.541e-42 -3.2024e-41 -4.4808e-41 3.187e-42
1.09e-42 -1.927e-42 3.311e-42 5.776e-42 -6.0264e-41 -4.9868e-41 -4.2274e-41 6.4413e-41
-1.9952e-41 -3.1271e-41 -6.6293e-41 -3.5418e-41 1.5169e-41 -1.7303e-41 7.0251e-41 -5.2423e-41
7.1217e-41 4.9184e-41 7.4353e-41 5.5496e-41 -6.716e-42 5.4502e-41 -5.3482e-41 7.546e-41
1.788e-42 -4.4575e-41 -1.5092e-41 -1.5762e-41 -5.0357e-41 5.6014e-41 -7.593e-41 4.6557e-41
-7.0255e-41 -3.696e-41 3.22e-42 2.4186e-41 -3.105e-42 -5.529e-41 2.935e-41 -5.7432e-41
-6.1933e-41 -7.492e-41 -6.54e-41 -2.2616e-41 -7.5456e-41 4.387e-42 -4.81e-42 -7.0457e-41
-3.8739e-41 -3.974e-41 -2.077e-42 -5.5025e-41 1.993e-42 -3.9873e-41 2.0581e-41 5.578e-41
-3.6565e-41 -2.543e-42 -2.3957e-41 -4.2424e-41 -1.787e-42 -2.1328e-41 -3.6026e-41 3.4838e-41
7.915e-42 -6.5054e-41 3.44e-42 -7.4747e-41 2.5635e-41 7.3282e-41 -5.801e-41 2.5355e-41
-4.4884e-41 -3.6214e-41 -6.7753e-41 6.692e-41 -5.2252e-41 -7.3357e-41 -3.6187e-41 4.3692e-41
3.095e-41 4.6195e-41 1.783e-41 -2.6189e-41 7.6015e-41 -7.3698e-41 4.154e-41 1.3366e-41
-8.125e-42 -2.517e-41 1.0273e-41 3.9082e-41 5.648e-41 5.4258e-41 -3.559e-41 -6.414e-42
6.6305e-41 -5.3986e-41 -1.1446e-41 4.685e-42 -3.4305e-41 -1.6164e-41 -4.7287e-41 -5.0068e-41
6.0715e-41 7.467e-41 -4.9354e-41 -5.3416e-41 -4.7148e-41 7.259e-41 7.1424e-41 7.4478e-41
00000000: 61af 0000 29a7 0080 9d7b 0080 3d61 0000
00000010: fb56 0000 6566 0080 8e10 0000 6515 0000
00000020: d86d 0080 22c4 0080 6f3b 0000 3275 0080
00000030: a347 0000 3062 0000 3115 0000 88c5 0080
00000040: ac22 0080 4eac 0080 af39 0000 a77f 0080
00000050: 3039 0080 6d16 0080 92cc 0000 f259 0000
00000060: d147 0080 5b0b 0080 6337 0080 f0a9 0080
00000070: 1a9a 0080 aa45 0000 2d7a 0080 9c5d 0080
00000080: bc51 0000 4781 0000 1c67 0080 c403 0080
00000090: 1fc6 0000 1b52 0000 db1f 0080 676b 0000
000000a0: 876c 0080 3d29 0080 8e72 0000 441e 0080
000000b0: be56 0080 5155 0000 534d 0080 7a9b 0000
000000c0: 7f49 0000 2e6b 0000 395b 0080 5f07 0000
000000d0: 1874 0000 8b29 0000 75bd 0080 fa13 0000
000000e0: 308f 0000 e74f 0080 904d 0080 1a67 0080
000000f0: e9d2 0080 c742 0080 dfab 0000 c2ba 0080
00000100: df53 0080 11ac 0000 6178 0000 7520 0000
00000110: e4d1 0080 cbcb 0000 4891 0000 43c4 0080
00000120: 3387 0000 a526 0080 df0c 0080 e26a 0080
00000130: f7a5 0080 e76a 0000 3c5d 0080 e9d4 0080
00000140: 9503 0000 10be 0000 f78d 0000 4717 0080
00000150: 2828 0000 035a 0080 526b 0000 8323 0080
00000160: a27c 0000 4c5c 0080 7a6f 0000 159d 0000
00000170: 67cc 0000 590e 0080 fd45 0000 4666 0000
00000180: 42c8 0080 a437 0080 c627 0000 e800 0080
00000190: 280b 0000 a69a 0080 0596 0000 c327 0080
000001a0: a61a 0080 c99d 0000 9263 0080 e602 0000
000001b0: 2f07 0000 06b5 0000 727f 0080 bf0e 0000
000001c0: bf46 0000 b54f 0000 b391 0080 6c35 0080
000001d0: b65c 0080 c14e 0000 78b8 0000 dd68 0000
000001e0: 556a 0000 d71a 0080 b29a 0080 8161 0080
000001f0: bb18 0080 2278 0000 f143 0000 1431 0000
00000200: e9be 0080 368f 0080 ac60 0080 739b 0000
00000210: 195f 0080 43bb 0000 5c5f 0000 731c 0000
00000220: 2f15 0000 5131 0080 8c50 0080 4c65 0080
00000230: 720f 0000 4559 0080 e87c 0080 e208 0000
00000240: 0a03 0000 5f05 0080 3b09 0000 1a10 0000
00000250: fea7 0080 038b 0080 d875 0080 8fb3 0000
00000260: 9e37 0080 2c57 0080 ccb8 0080 bb62 0080
00000270: 492a 0000 3c30 0080 d5c3 0000 2292 0080
00000280: 86c6 0000 1b89 0000 44cf 0000 b39a 0000
00000290: b912 0080 ee97 0000 1695 0080 5ad2 0000
000002a0: fc04 0000 427c 0080 122a 0080 f02b 0080
000002b0: 608c 0080 259c 0000 a9d3 0080 c881 0000
000002c0: d8c3 0080 0867 0080 fa08 0000 6c43 0000
000002d0: a808 0080 209a 0080 d151 0000 19a0 0080
000002e0: a5ac 0080 d9d0 0080 4fb6 0080 0b3f 0080
000002f0: 57d2 0080 3b0c 0000 690d 0080 68c4 0080
00000300: fd6b 0080 c76e 0080 ca05 0080 6399 0080
00000310: 8e05 0000 266f 0080 5f39 0000 7e9b 0000
00000320: ee65 0080 1707 0080 c842 0080 4376 0080
00000330: fb04 0080 743b 0080 6d64 0080 1d61 0000
00000340: 1016 0000 58b5 0080 9709 0000 5dd0 0080
00000350: 7647 0000 48cc 0000 b5a1 0080 ae46 0000
00000360: 1e7d 0080 f364 0080 debc 0080 8cba 0000
00000370: a891 0080 7dcc 0080 e064 0080 cc79 0000
00000380: 4756 0000 c680 0000 b431 0000 0149 0080
00000390: e6d3 0000 71cd 0080 cc73 0000 4225 0000
000003a0: a616 0080 2a46 0080 a31c 0000 f26c 0000
000003b0: 719d 0000 4097 0000 3663 0080 e111 0080
000003c0: d5b8 0000 7e96 0080 e81f 0080 0f0d 0000
000003d0: a15f 0080 0f2d 0080 d183 0080 928b 0080
000003e0: 40a9 0000 26d0 0000 9489 0080 e794 0080
000003f0: 6e83 0080 5aca 0000 1ac7 0000 9dcf 0000

hidden.2.linear.bias f4 [30]
3.9234e-41 -1.548e-41 -6.628e-42 -5.19e-42 2.1918e-41 6.32e-43 -3.1533e-41 3.4832e-41
-4.9654e-41 4.5911e-41 7.62e-43 3.9211e-41 -1.5695e-41 6.207e-41 6.633e-41 -4.2385e-41
3.41e-42 -5.541e-42 1.1983e-41 -7.718e-42 -3.8546e-41 -2.2145e-41 6.0284e-41 6.631e-42
2.3166e-41 2.9022e-41 -5.4816e-41 1.2113e-41 -2.1174e-41 -3.6291e-41
00000000: 5e6d 0000 272b 0080 7a12 0080 780e 0080
00000010: 193d 0000 c301 0000 e757 0080 1961 0000
00000020: 6a8a 0080 fb7f 0000 2002 0000 4e6d 0000
00000030: c02b 0080 07ad 0000 e7b8 0000 2776 0080
00000040: 8109 0000 720f 0080 6721 0000 8415 0080
00000050: 736b 0080 bb3d 0080 0ca8 0000 7c12 0000
00000060: 9440 0000 e750 0000 ce98 0080 c421 0000
00000070: 063b 0080 2a65 0080

hidden.2.bn.weight f4 [30]
-4.4095e-41 -7.3e-41 6.6647e-41 4.2769e-41 2.7035e-41 6.1374e-41 1.4407e-41 1.2208e-41
-6.2272e-41 5.0709e-41 5.031e-41 -2.2596e-41 1.7888e-41 -4.049e-41 3.0003e-41 4.9652e-41
-6.1123e-41 -1.5783e-41 2.5585e-41 2.7345e-41 6.8285e-41 5.787e-42 -2.0215e-41 7.555e-41
1.7226e-41 -6.267e-42 7.192e-41 1.6359e-41 6.9736e-41 -1.959e-42
00000000: eb7a 0080 7fcb 0080 c9b9 0000 3977 0000
00000010: 5d4b 0000 16ab 0000 2928 0000 0822 0000
00000020: 97ad 0080 5b8d 0000 3e8c 0000 fd3e 0080
00000030: dd31 0000 df70 0080 a353 0000 698a 0000
00000040: 63aa 0080 ff2b 0080 5247 0000 3a4c 0000
00000050: 5abe 0000 2210 0000 5a38 0080 9ad2 0000
00000060: 0530 0000 7811 0080 7cc8 0000 9a2d 0000
00000070: 65c2 0000 7605 0080

hidden.2.bn.bias f4 [30]
-3.2933e-41 -1.8409e-41 -5.052e-41 -1.883e-42 4.0397e-41 3.5153e-41 -4.503e-41 1.053e-41
6.964e-41 -7.3074e-41 -1.8011e-41 -6.2721e-41 -1.0136e-41 -1.9713e-41 3.9591e-41 1.9774e-41
6.624e-41 -5.3971e-41 -7.5362e-41 -2.0528e-41 9.642e-42 -3.433e-42 3.7869e-41 7.1264e-41
1.5676e-41 -1.289e-41 1.1751e-41 -1.8627e-41 5.9344e-41 5.0606e-41
00000000: ce5b 0080 5133 0080 d48c 0080 4005 0080
00000010: 9c70 0000 fe61 0000 867d 0080 5a1d 0000
00000020: 21c2 0000 b3cb 0080 3532 0080 d7ae 0080
00000030: 411c 0080 f436 0080 5d6e 0000 1f37 0000
00000040: a6b8 0000 7396 0080 14d2 0080 3939 0080
00000050: e11a 0000 9209 0080 9069 0000 a8c6 0000
00000060: b32b 0000 ef23 0080 c220 0000 ed33 0080
00000070: 6da5 0000 128d 0000

hidden.2.bn.running_mean f4 [30]
-6.43e-42 2.4739e-41 2.9883e-41 3.1326e-41 -1.989e-41 3.4971e-41 -4.6893e-41 -9.677e-42
-4.9379e-41 -7.99e-43 3.5097e-41 -6.459e-42 2.4528e-41 4.6977e-41 1.6413e-41 3.32e-42
-3.1023e-41 3.0976e-41 -2.6483e-41 -3.7078e-41 7.117e-42 1.9666e-41 1.1046e-41 3.8555e-41
-1.8643e-41 4.8303e-41 -4.86e-41 4.1354e-41 2.0633e-41 -4.7137e-41
00000000: ed11 0080 f644 0000 4d53 0000 5357 0000
00000010: 7237 0080 7c61 0000 b882 0080 fa1a 0080
00000020: a689 0080 3a02 0080 d661 0000 0112 0080
00000030: 6044 0000 f482 0000 c12d 0000 4109 0000
00000040: 7b56 0080 5956 0000 d349 0080 5c67 0080
00000050: d713 0000 d236 0000 cb1e 0000 7a6b 0000
00000060: f833 0080 a686 0000 7a87 0080 4773 0000
00000070: 8439 0000 6683 0080

hidden.2.bn.running_var f4 [30]
6e-45 6e-45 6e-45 6e-45 6e-45 6e-45 6e-45 6e-45
6e-45 6e-45 6e-45 6e-45 6e-45 6e-45 6e-45 6e-45
6e-45 6e-45 6e-45 6e-45 6e-45 6e-45 6e-45 6e-45
6e-45 6e-45 6e-45 6e-45 6e-45 6e-45
00000000: 0400 0000 0400 0000 0400 0000 0400 0000
00000010: 0400 0000 0400 0000 0400 0000 0400 0000
00000020: 0400 0000 0400 0000 0400 0000 0400 0000
00000030: 0400 0000 0400 0000 0400 0000 0400 0000
00000040: 0400 0000 0400 0000 0400 0000 0400 0000
00000050: 0400 0000 0400 0000 0400 0000 0400 0000
00000060: 0400 0000 0400 0000 0400 0000 0400 0000
00000070: 0400 0000 0400 0000

hidden.3.linear.weight f4 [15, 30]
-3.9846e-41 -1.0723e-41 5.6493e-41 -1.5582e-41 4.9855e-41 -3.5258e-41 -7.6428e-41 6.1803e-41
-1.6514e-41 1.6056e-41 9.668e-42 2.8016e-41 5.8957e-41 -1.0934e-41 3.413e-41 -4.6522e-41
-1.9125e-41 2.6386e-41 6.3082e-41 -4.2134e-41 -6.764e-41 6.2726e-41 -3.5129e-41 3.8246e-41
-5.5288e-41 -6.6936e-41 -1.0023e-41 -7.0655e-41 3.9278e-41 -2.8662e-41 -4.3084e-41 -5.2312e-41
-3.3418e-41 2.0033e-41 -2.7338e-41 4.7734e-41 -2.2519e-41 6.7523e-41 -9.323e-42 4.794e-41
-1.784e-42 -1.5365e-41 1.316e-41 -2.4255e-41 2.8465e-41 -5.2141e-41 -4.8412e-41 6.304e-41
4.7958e-41 1.0864e-41 7.4806e-41 4.923e-42 -1.9177e-41 5.5648e-41 4.5775e-41 -1.9685e-41
-4.3229e-41 6.6017e-41 -4.3068e-41 -2.9294e-41 -2.4925e-41 -3.3827e-41 7.0422e-41 1.4708e-41
-3.7671e-41 7.4385e-41 -1.323e-41 -3.828e-41 7.5317e-41 -3.3082e-41 3.853e-41 -4.3757e-41
1.5112e-41 2.277e-42 -1.8922e-41 -6.083e-41 -5.0436e-41 -6.0783e-41 -6.111e-42 9.746e-42
6.6646e-41 -4.8853e-41 3.1305e-41 -6.5598e-41 6.742e-41 6.0441e-41 6.882e-41 -3.5677e-41
4.9645e-41 5.0927e-41 2.9431e-41 6.6828e-41 -6.4922e-41 6.6231e-41 2.0217e-41 -2.6604e-41
-2.5638e-41 -6.8481e-41 5.5752e-41 7.4731e-41 -4.3831e-41 -4.6163e-41 -3.7064e-41 2.4964e-41
3.187e-41 7.164e-41 2.0654e-41 3.9574e-41 1.0127e-41 4.4863e-41 7.4363e-41 5.5193e-41
5.4136e-41 -6.0624e-41 -3.0838e-41 3.9845e-41 -3.9863e-41 -1.5372e-41 -7.2727e-41 -7.4706e-41
-7.0875e-41 -1.0482e-41 -5.5553e-41 4.5207e-41 -5.2434e-41 -2.2031e-41 -4.6003e-41 -1.2375e-41
4.687e-42 1.2905e-41 -1.5262e-41 -7.4329e-41 -3.0833e-41 5.5081e-41 -4.6019e-41 1.079e-41
-5.571e-41 -2.5376e-41 -3.9776e-41 -7.5132e-41 -1.0201e-41 6.3584e-41 -6.0308e-41 7.4507e-41
3.8609e-41 6.112e-41 6.8941e-41 5.4016e-41 3.1e-41 3.1124e-41 3.3686e-41 -6.3113e-41
-7.4801e-41 7.465e-41 -2.8137e-41 -3.6233e-41 -6.7527e-41 2.7388e-41 -6.4677e-41 3.699e-41
3.4594e-41 4.8778e-41 -2.457e-41 -5.4963e-41 2.016e-41 1.4435e-41 1.4112e-41 1.1551e-41
6.0571e-41 -3.0042e-41 5.3396e-41 7.1339e-41 5.0396e-41 -4.9633e-41 -6.8064e-41 7.4751e-41
6.9113e-41 -7.4536e-41 4.3286e-41 -4.9242e-41 3.8593e-41 6.358e-42 1.3307e-41 2.9668e-41
4.6663e-41 -5.7293e-41 -9.619e-42 -7.5149e-41 9.003e-42 -2.9898e-41 -6.1544e-41 -5.7132e-41
4.64e-42 -1.4478e-41 -3.1049e-41 -1.3214e-41 1.8943e-41 4.0582e-41 1.8688e-41 -3.2556e-41
-5.5273e-41 6.7044e-41 3.6795e-41 5.2176e-41 4.9756e-41 5.7141e-41 -5.0304e-41 1.32e-42
2.9647e-41 6.6927e-41 -6.1654e-41 3.7548e-41 -3.0006e-41 -2.9225e-41 5.8478e-41 -4.738e-41
2.543e-41 4.9872e-41 -1.992e-41 1.1606e-41 7.5985e-41 1.1285e-41 -1.5802e-41 2.908e-42
3.11e-42 8.831e-42 -5.6303e-41 -2.2749e-41 -6.105e-42 -4.129e-41 7.1653e-41 -2.655e-41
-1.8049e-41 3.7985e-41 -6.265e-42 -1.251e-41 -6.789e-41 6.116e-41 -6.6438e-41 6.6073e-41
-3.349e-42 -7.0415e-41 -1.165e-41 1.6476e-41 -6.8917e-41 -4.202e-42 -3.6116e-41 -5.094e-42
-5.066e-41 -1.9889e-41 -2.7879e-41 -6.569e-41 -3.9361e-41 -4.487e-42 -5.9862e-41 3.8148e-41
00000000: 136f 0080 e41d 0080 7b9d 0000 702b 0080
00000010: fa8a 0000 4962 0080 0dd5 0080 48ac 0000
00000020: 092e 0080 c22c 0000 f31a 0000 194e 0000
00000030: 59a4 0000 7b1e 0080 245f 0000 af81 0080
00000040: 5035 0080 8e49 0000 d9af 0000 7475 0080
00000050: 8ebc 0080 dbae 0000 ed61 0080 9d6a 0000
00000060: 1f9a 0080 97ba 0080 f11b 0080 f5c4 0080
00000070: 7e6d 0000 e64f 0080 1a78 0080 d391 0080
00000080: 285d 0080 d837 0000 354c 0080 1085 0000
00000090: c63e 0080 3abc 0000 fd19 0080 a385 0000
000000a0: f904 0080 d52a 0080 af24 0000 9d43 0080
000000b0: 594f 0000 5991 0080 f486 0080 bbaf 0000
000000c0: b085 0000 491e 0000 87d0 0000 b90d 0000
000000d0: 7535 0080 209b 0000 9a7f 0000 e036 0080
000000e0: 8178 0080 07b8 0000 0e78 0080 a951 0080
000000f0: 7b45 0080 4c5e 0080 4fc4 0000 0029 0000
00000100: 0369 0080 5bcf 0000 e124 0080 b66a 0080
00000110: f4d1 0000 385c 0080 686b 0000 fa79 0080
00000120: 202a 0000 5906 0000 bf34 0080 92a9 0080
00000130: 988c 0080 70a9 0080 0911 0080 2b1b 0000
00000140: c8b9 0000 2f88 0080 4457 0000 dcb6 0080
00000150: f1bb 0000 7ca8 0000 d8bf 0000 7463 0080
00000160: 648a 0000 f78d 0000 0b52 0000 4aba 0000
00000170: fab4 0080 a0b8 0000 5b38 0000 294a 0080
00000180: 7847 0080 e6be 0080 6a9b 0000 52d0 0000
00000190: 2f7a 0080 af80 0080 5267 0080 9745 0000
000001a0: d758 0000 b4c7 0000 9339 0000 516e 0000
000001b0: 3b1c 0000 0f7d 0000 4bcf 0000 db99 0000
000001c0: e996 0000 ffa8 0080 f755 0080 126f 0000
000001d0: 1f6f 0080 da2a 0080 bcca 0080 40d0 0080
000001e0: 92c5 0080 381d 0080 dc9a 0080 057e 0000
000001f0: 2a92 0080 6a3d 0080 3d80 0080 7f22 0080
00000200: 110d 0000 f923 0000 8b2a 0080 33cf 0080
00000210: f355 0080 8b99 0000 4880 0080 141e 0000
00000220: 4c9b 0080 bd46 0080 e16e 0080 70d1 0080
00000230: 701c 0080 3fb1 0000 1da8 0080 b2cf 0000
00000240: a06b 0000 61aa 0000 2ec0 0000 9396 0000
00000250: 6a56 0000 c356 0000 e75d 0000 efaf 0080
00000260: 84d0 0080 18d0 0000 6f4e 0080 0165 0080
00000270: 3dbc 0080 594c 0000 4bb4 0080 1d67 0000
00000280: 6f60 0000 f987 0000 7e44 0080 3799 0080
00000290: 3338 0000 3d28 0000 5727 0000 3320 0000
000002a0: d9a8 0000 bf53 0080 d994 0000 ddc6 0000
000002b0: 7c8c 0000 5b8a 0080 bcbd 0080 60d0 0000
000002c0: a9c0 0000 c7cf 0080 aa78 0000 4489 0080
000002d0: 956b 0000 b911 0000 1825 0000 b452 0000
000002e0: 1482 0000 b69f 0080 d01a 0080 7cd1 0080
000002f0: 1919 0000 5853 0080 8fab 0080 439f 0080
00000300: ef0c 0000 5c28 0080 8d56 0080 d624 0080
00000310: ce34 0000 2071 0000 1834 0000 c15a 0080
00000320: 149a 0080 e4ba 0000 9266 0000 7291 0000
00000330: b38a 0000 499f 0000 3a8c 0080 ae03 0000
00000340: a552 0000 91ba 0000 deab 0080 ab68 0000
00000350: a553 0080 7851 0080 03a3 0000 1384 0080
00000360: e346 0000 068b 0000 8737 0080 5a20 0000
00000370: d1d3 0000 751f 0000 0d2c 0080 1b08 0000
00000380: ab08 0000 9e18 0000 f39c 0080 6a3f 0080
00000390: 0511 0080 1a73 0080 bdc7 0000 034a 0080
000003a0: 5032 0080 e369 0000 7711 0080 df22 0080
000003b0: 40bd 0080 7daa 0000 34b9 0080 2fb8 0000
000003c0: 5609 0080 4ac4 0080 7a20 0080 ee2d 0000
000003d0: 1dc0 0080 b70b 0080 ad64 0080 330e 0080
000003e0: 388d 0080 7137 0080 b74d 0080 1eb7 0080
000003f0: b96d 0080 820c 0080 dfa6 0080 576a 0000

hidden.3.linear.bias f4 [15]
-1.1402e-41 -3.2733e-41 4.2389e-41 1.888e-41 2.7437e-41 -2.964e-41 -4.373e-41 4.9174e-41
-1.1425e-41 -1.225e-41 2.564e-42 -1.8807e-41 -2.0284e-41 -7.0267e-41 2.3909e-41
00000000: c91f 0080 3f5b 0080 2a76 0000 a134 0000
00000010: 7c4c 0000 a052 0080 e779 0080 1489 0000
00000020: d91f 0080 2622 0080 2607 0000 6d34 0080
00000030: 8b38 0080 e0c3 0080 a642 0000

hidden.3.bn.weight f4 [15]
-1.91e-42 -5.5903e-41 -2.4479e-41 4.4315e-41 7.2056e-41 -1.6345e-41 4.7919e-41 5.189e-42
-4.6955e-41 2.0418e-41 -1.3671e-41 -3.562e-42 -1.9536e-41 -8.59e-43 7.6567e-41
00000000: 5305 0080 d69b 0080 3d44 0080 887b 0000
00000010: ddc8 0000 902d 0080 9485 0000 770e 0000
00000020: e482 0080 eb38 0000 1c26 0080 ee09 0080
00000030: 7536 0080 6502 0080 70d5 0000

hidden.3.bn.bias f4 [15]
3.8386e-41 1.9209e-41 -6.6612e-41 4.0928e-41 -2.0526e-41 3.4597e-41 1.5856e-41 6.6102e-41
-3.8373e-41 -7.31e-43 6.8131e-41 -6.9102e-41 -7.752e-42 6.974e-42 3.9438e-41
00000000: 016b 0000 8c35 0000 b0b9 0080 1772 0000
00000010: 3839 0080 7160 0000 332c 0000 44b8 0000
00000020: f86a 0080 0a02 0080 ecbd 0000 a1c0 0080
00000030: 9c15 0080 7113 0000 f06d 0000

hidden.3.bn.running_mean f4 [15]
2.7058e-41 1.178e-41 -3.32e-42 4.197e-41 -1.5794e-41 -4.5001e-41 2.971e-42 1.532e-42
-4.0667e-41 -4.1494e-41 3.4591e-41 -4.19e-41 2.0006e-41 -2.377e-41 4.334e-41
00000000: 6d4b 0000 d620 0000 4109 0080 ff74 0000
00000010: 072c 0080 727d 0080 4808 0000 4504 0000
00000020: 5d71 0080 ab73 0080 6d60 0000 cd74 0080
00000030: c537 0000 4342 0080 d078 0000

hidden.3.bn.running_var f4 [15]
6e-45 6e-45 6e-45 6e-45 6e-45 6e-45 6e-45 6e-45
6e-45 6e-45 6e-45 6e-45 6e-45 6e-45 6e-45
00000000: 0400 0000 0400 0000 0400 0000 0400 0000
00000010: 0400 0000 0400 0000 0400 0000 0400 0000
00000020: 0400 0000 0400 0000 0400 0000 0400 0000
00000030: 0400 0000 0400 0000 0400 0000

code.weight f4 [4, 15]
4.0334e-41 4.9544e-41 3.2943e-41 -6.713e-41 3.521e-42 5.2423e-41 2.425e-41 1.1964e-41
-5.6472e-41 5.419e-42 7.3476e-41 -7.2834e-41 4.4131e-41 -6.3567e-41 4.3851e-41 -1.8238e-41
-7.5054e-41 -1.9514e-41 -6.1e-41 1.1215e-41 7.409e-42 -1.5182e-41 7.4175e-41 1.9747e-41
-1.1049e-41 -2.0518e-41 8.158e-42 -5.5102e-41 5.2453e-41 3.841e-42 6.908e-42 3.1176e-41
7.3647e-41 -1.5602e-41 -9.679e-42 3.0906e-41 2.2702e-41 3.788e-42 4.7075e-41 8.995e-42
-6.4646e-41 6.0557e-41 7.4693e-41 3.9378e-41 -2.1311e-41 6.8395e-41 3.3492e-41 -2.6431e-41
6.2705e-41 9.735e-42 -5.5392e-41 -1.1652e-41 -5.1533e-41 1.4834e-41 -2.6237e-41 -4.7319e-41
-3.1954e-41 3.3344e-41 1.1599e-41 2.4939e-41
00000000: 6f70 0000 1c8a 0000 d55b 0000 22bb 0080
00000010: d109 0000 2292 0000 9943 0000 5a21 0000
00000020: 6c9d 0080 1b0f 0000 d2cc 0000 08cb 0080
00000030: 057b 0000 33b1 0080 3d7a 0000 d732 0080
00000040: 38d1 0080 6636 0080 0baa 0080 431f 0000
00000050: a714 0000 522a 0080 c5ce 0000 0c37 0000
00000060: cd1e 0080 3239 0080 be16 0000 9a99 0080
00000070: 3892 0000 b50a 0000 4213 0000 e856 0000
00000080: 4ccd 0000 7e2b 0080 fb1a 0080 2756 0000
00000090: 493f 0000 8f0a 0000 3a83 0000 1319 0000
000000a0: 35b4 0080 cfa8 0000 37d0 0000 c56d 0000
000000b0: 683b 0080 a8be 0000 5d5d 0000 ae49 0080
000000c0: ccae 0000 231b 0000 699a 0080 7b20 0080
000000d0: a78f 0080 5a29 0000 2349 0080 e883 0080
000000e0: 1359 0080 f35c 0000 5520 0000 8545 0000

code.bias f4 [4]
0.34062016 -0.09999543 -0.32076198 -0.22275354
00000000: c465 ae3e 67ca ccbd ea3a a4be 8119 64be

encoder.hidden.0.linear.weight f4 [60, 12]
1.5805e-41 -3.4531e-41 -3.59e-41 6.291e-41 1.8232e-41 -8.404e-42 2.277e-42 -7.322e-42
2.5875e-41 1.8564e-41 -1.785e-42 2.4062e-41 -1.075e-41 -6.9883e-41 3.7827e-41 2.3982e-41
1.9578e-41 2.183e-41 8.862e-42 3.9117e-41 -4.0772e-41 -2.5948e-41 -6.2234e-41 -1.768e-42
-3.9288e-41 -5.263e-42 4.589e-41 1.2008e-41 -3.381e-42 -2.2122e-41 3.0068e-41 8.123e-42
1.9485e-41 1.2884e-41 -5.2826e-41 5.4078e-41 -5.3552e-41 2.5843e-41 4.154e-41 8.7595e-41
7.8236e-41 6.4343e-41 -8.1062e-41 -3.0645e-41 9.54e-43 -1.8842e-41 -7.8414e-41 -2.3189e-41
-4.8554e-41 -4.4654e-41 7.1871e-41 5.3843e-41 7.6781e-41 6.1565e-41 -9.0623e-41 -4.407e-42
7.12e-41 8.0231e-41 -3.8394e-41 -7.803e-41 -2.0868e-41 -2.3929e-41 -3.5621e-41 1.7703e-41
6.4575e-41 3.059e-41 6.841e-42 4.8434e-41 -3.9192e-41 1.932e-42 -6.953e-42 -5.9789e-41
-1.7365e-41 -3.793e-41 -1.0496e-41 4.7986e-41 2.33e-42 1.537e-42 4.98e-41 -5.2456e-41
1.3859e-41 -6.5153e-41 5.3367e-41 3.3378e-41 -2.0651e-41 -4.5256e-41 2.64e-41 -8.3648e-41
5.3289e-41 -3.7059e-41 3.3012e-41 9.5002e-41 4.6631e-41 -3.7804e-41 -7.8645e-41 -4.52e-42
-1.0323e-41 -7.3536e-41 -5.3139e-41 -3.1697e-41 1.7376e-41 6.8126e-41 5.7298e-41 6.6005e-41
6.8666e-41 -5.0775e-41 1.4739e-41 -7.1378e-41 -1.1554e-41 6.27e-41 2.9426e-41 4.3258e-41
4.0632e-41 7.3947e-41 -2.6308e-41 5e-43 6.6144e-41 -1.2187e-41 2.936e-42 -1.61e-42
-2.4495e-41 -7.2774e-41 3.516e-42 -7.3214e-41 -1.4089e-41 1.6582e-41 5.9004e-41 7.9511e-41
-6.4332e-41 -8.2035e-41 -8.1132e-41 5.0108e-41 0.038780607 -0.022957217 0.0023907425 -0.0037480376
-0.0040659467 -0.0033906417 0.029833052 0.0024923654 -0.003979553 -0.0042011216 0.0012613472 0.0178389
4.8185e-41 3.8576e-41 4.8174e-41 4.8865e-41 -4.437e-41 2.328e-41 -5.0818e-41 2.882e-42
2.9947e-41 2.3926e-41 4.8952e-41 -3.7958e-41 -7.0777e-41 -5.9732e-41 4.9348e-41 -3.0596e-41
2.8742e-41 1.1482e-41 7.6053e-41 -7.8462e-41 -2.8259e-41 -5.1869e-41 6.5781e-41 7.5924e-41
-7.4267e-41 -4.4987e-41 -2.7367e-41 3.8761e-41 -6.4467e-41 -8.924e-41 -6.5977e-41 -5.8721e-41
6.7362e-41 8.0275e-41 -4.7203e-41 -5.7048e-41 -9.77e-43 -3.7405e-41 1.4765e-41 2.3339e-41
7.131e-42 6.1696e-41 3.55e-42 3.6675e-41 4.8911e-41 5.033e-41 5.183e-41 8.2252e-41
0.0040442226 0.0005429849 -0.0016819898 0.0028167837 -0.0038888017 0.0022955826 -0.003245323 -0.040765062
0.0024280671 0.0021715562 -0.0014623534 -0.007680346 -1.9185e-41 -3.3704e-41 -2.1665e-41 -3.1135e-41
-6.0972e-41 -2.8997e-41 -6.7707e-41 -5.7808e-41 -4.827e-42 7.8665e-41 -8.8694e-41 -2.7017e-41
-6.7883e-41 -2.831e-41 1.7585e-41 6.8326e-41 9.3059e-41 7.5166e-41 -4.3669e-41 7.9657e-41
-7.2908e-41 5.7181e-41 2.716e-41 6.417e-41 -2.2879e-41 -4.4623e-41 9.498e-42 -3.7172e-41
-5.0389e-41 8.165e-42 -4.4933e-41 -9.27e-42 2.974e-41 5.201e-41 3.5531e-41 -2.9989e-41
2.0372e-41 2.726e-41 -5.0578e-41 1.681e-41 7.3316e-41 -6.5471e-41 6.9063e-41 -2.6443e-41
-2.6961e-41 -8.284e-42 -7.4968e-41 1.5029e-41 0.0066922433 0.0019970788 -0.08115728 -0.01708685
00000000: 0f2c 0000 4260 0080 1364 0080 5eaf 0000
00000010: d332 0000 6d17 0080 5906 0000 6914 0080
00000020: 2148 0000 c033 0000 fa04 0080 1343 0000
00000030: f71d 0080 cec2 0080 7269 0000 da42 0000
00000040: 9336 0000 da3c 0000 b418 0000 0b6d 0000
00000050: a871 0080 5548 0080 7cad 0080 ee04 0080
00000060: 856d 0080 ac0e 0080 ec7f 0000 7921 0000
00000070: 6d09 0080 ab3d 0080 d153 0000 a516 0000
00000080: 5136 0000 ea23 0000 4293 0080 bf96 0000
00000090: 4895 0080 0a48 0000 cc73 0000 2ef4 0000
000000a0: 17da 0000 5db3 0000 f8e1 0080 6d55 0080
000000b0: a902 0000 8634 0080 96da 0080 a440 0080
000000c0: 5987 0080 7a7c 0080 59c8 0000 1896 0000
000000d0: 09d6 0000 9eab 0000 9ffc 0080 490c 0080
000000e0: 7ac6 0000 a7df 0000 076b 0080 84d9 0080
000000f0: 2c3a 0080 b442 0080 4c63 0080 5931 0000
00000100: 02b4 0000 4655 0000 1213 0000 0487 0000
00000110: 406d 0080 6305 0000 6213 0080 aba6 0080
00000120: 6830 0080 bc69 0080 421d 0080 c485 0000
00000130: 7f06 0000 4904 0000 d28a 0000 3a92 0080
00000140: a226 0000 9fb5 0080 c494 0000 0b5d 0000
00000150: 9139 0080 287e 0080 9849 0000 2de9 0080
00000160: 8c94 0000 4e67 0080 065c 0000 d408 0100
00000170: fd81 0000 6269 0080 3bdb 0080 9a0c 0080
00000180: c71c 0080 fdcc 0080 2194 0080 5c58 0080
00000190: 7030 0000 e8bd 0000 b99f 0000 ffb7 0000
000001a0: 6abf 0000 8a8d 0080 1629 0000 f9c6 0080
000001b0: 3520 0080 c8ae 0000 0752 0000 9678 0000
000001c0: 4471 0000 22ce 0000 5649 0080 6501 0000
000001d0: 62b8 0000 f921 0080 2f08 0000 7d04 0080
000001e0: 4844 0080 ddca 0080 cd09 0000 17cc 0080
000001f0: 4627 0080 392e 0000 7ba4 0000 a5dd 0000
00000200: 55b3 0080 aee4 0080 2ae2 0080 ae8b 0000
00000210: 6ad8 1e3d c610 bcbc 01ae 1c3b a3a1 75bb
00000220: a23b 85bb 8735 5ebb 7264 f43c f456 233b
00000230: e966 82bb 90a9 89bb ca53 a53a e322 923c
00000240: 5286 0000 896b 0000 4a86 0000 3788 0000
00000250: af7b 0080 e540 0000 a98d 0080 0908 0000
00000260: 7b53 0000 b242 0000 7588 0000 d069 0080
00000270: 4cc5 0080 82a6 0080 9089 0000 4a55 0080
00000280: 1f50 0000 0220 0000 01d4 0000 b8da 0080
00000290: c64e 0080 9790 0080 5fb7 0000 a5d3 0000
000002a0: 07cf 0080 687d 0080 4a4c 0080 0d6c 0000
000002b0: b5b3 0080 c4f8 0080 ebb7 0080 b1a3 0080
000002c0: c7bb 0000 c6df 0000 9583 0080 079f 0080
000002d0: b902 0080 4568 0080 2929 0000 0f41 0000
000002e0: e113 0000 fcab 0000 e509 0000 3c66 0000
000002f0: 5888 0000 4d8c 0000 7b90 0000 49e5 0000
00000300: 6685 843b 1a57 0e3a 3676 dcba ca99 383b
00000310: 44db 7ebb 7c71 163b 7caf 54bb 44f9 26bd
00000320: 3520 1f3b ab50 0e3b 70ac bfba 69ab fbbb
00000330: 7b35 0080 f45d 0080 653c 0080 cb56 0080
00000340: f7a9 0080 d550 0080 bdbc 0080 25a1 0080
00000350: 750d 0080 49db 0000 3ef7 0080 504b 0080
00000360: 3bbd 0080 eb4e 0080 0531 0000 77be 0000
00000370: 6903 0100 88d1 0000 bb79 0080 0dde 0000
00000380: 3dcb 0080 669f 0000 b64b 0000 e1b2 0000
00000390: c73f 0080 647c 0080 7a1a 0000 9f67 0080
000003a0: 778c 0080 c316 0000 417d 0080 d719 0080
000003b0: e752 0000 fc90 0000 0c63 0000 9953 0080
000003c0: ca38 0000 fd4b 0000 fe8c 0080 dc2e 0000
000003d0: 60cc 0000 82b6 0080 85c0 0000 b649 0080
000003e0: 284b 0080 1817 0080 fbd0 0080 e529 0000
000003f0: 9b4a db3b 6ce1 023b ca35 a6bd b9f9 8bbc

encoder.hidden.0.linear.bias f4 [60]
-6.9216e-41 9.1931e-41 -7.3155e-41 -3.0864e-41 7.5687e-41 -7.5446e-41 1.6511e-41 7.7209e-41
-6.4212e-41 -8.2706e-41 -4.251e-41 -4.828988e-07 9.5534e-41 -6.6639e-41 9.2962e-41 1.5246e-41
5.690505e-07 2.8172e-41 -7.2768e-41 1.749e-41 5.1314e-41 -1.030809e-06 4.6233e-41 -5.9306e-41
3.5868e-41 -5.2452e-41 5.8136e-41 2.9783e-41 -8.9316e-41 4.8475e-41 6.356578e-06 -2.517e-41
2.464e-41 6.726e-41 -2.4362e-41 2.2553641e-07 5.0196e-41 2.228e-41 -6.2038765e-08 -6.4814e-41
-1.65e-41 1.4136e-41 -3.3626e-41 1.1009e-41 6.2285e-41 -1.4090968e-07 -8.226e-41 -8.469983e-06
7.534e-41 2.5708e-41 7.5781e-41 -2.0694415e-06 -7.194765e-07 2.7582e-41 -2.5139e-41 7.4827e-41
7.7062e-41 3.3211e-41 6.0972326e-07 2.8288e-41
00000000: f2c0 0080 4400 0100 edcb 0080 0956 0080
00000010: fcd2 0000 50d2 0080 072e 0000 3ad7 0000
00000020: ffb2 0080 8de6 0080 8076 0080 8ea0 01b5
00000030: 4f0a 0100 c3b9 0080 2403 0100 802a 0000
00000040: dac0 1835 884e 0000 d9ca 0080 c130 0000
00000050: 0b8f 0000 545a 8ab5 e180 0000 52a5 0080
00000060: fc63 0000 3792 0080 0fa2 0000 0653 0000
00000070: faf8 0080 2187 0000 974a d536 2a46 0080
00000080: b044 0000 7ebb 0000 e943 0080 fa2a 7234
00000090: ed8b 0000 1c3e 0000 2c3a 85b3 adb4 0080
000000a0: ff2d 0080 6827 0000 bc5d 0080 b01e 0000
000000b0: a0ad 0000 f54c 17b4 4fe5 0080 4d1a 0eb7
000000c0: 04d2 0000 aa47 0000 3fd3 0000 bce0 0ab6
000000d0: 0c22 41b5 e34c 0000 1446 0080 96d0 0000
000000e0: d1d6 0000 945c 0000 ddab 2335 db4e 0000
